models/nr_wmg_pathfinding.pth (torch_old, 837075 bytes, 75 tensors)

global_embed_layer.layer.weight f4 [96, 15]
00000000: f382 e8bd 8c41 e23c e277 01be 4dee e33d
00000010: c3df 8abb 1a62 503e 3b22 cabd 5839 18bc
00000020: dedf 563b 087b 7b3e 723b 4dbd f6a1 3f3d
00000030: cf54 43be efec 583d 7b08 993d 1d4e 813e
00000040: 0343 7dbd b547 34be 6156 c2bd 8f10 1e3b
00000050: 4468 9fbd 0d95 4e3e 1597 75be 3c7d a23c
00000060: be3c 693e 83e4 df3d 2252 88bc 5711 913d
00000070: 5444 5bbe 9195 b03e af77 e23c 5670 4fbc
00000080: 9d2c 7cbe 567e edbc afa9 123d 6057 9bbd
00000090: bdf1 553d 9e93 cbbd a5ca dd3d de45 773e
000000a0: 4c01 273d 7336 b9bd 86f9 fb3b 71e0 13bd
000000b0: d99f cdbd 0c66 d33d 277d 82be e614 043e
000000c0: eb61 273e 1f23 1b3e 3b8c 11bc 1642 5f3d
000000d0: 5fcd e7bd 5844 8e3e 04e9 24be db5b f0bd
000000e0: d319 4dbd 82dd a7bd 521d a13d 9613 04bc
000000f0: c5e6 fbbc 2fde bb3d d411 18be 3aaa 0bbe
00000100: 89ae 71bd dd3d a4bd de86 e93c e141 393d
00000110: 8869 bcbd 64f5 013e 1325 1c3d 7b9f 3d3d
00000120: f7ab b83d 1f7d a1bd 1fc8 b5bd 4753 75bc
00000130: c381 e43c 81fa 813b 4fc6 473d 3ee5 893c
00000140: 78e3 a83c a817 3f3c 8355 fe3b b18d d6bc
00000150: db98 71bc 2529 0f3d c270 083d b10b 253c
00000160: 7b3c a13c aefc 41bd c7fe 403e 5966 803e
00000170: 2c76 b4be 749a 803e daeb ad3e ddb6 35be
00000180: 6203 13be 0006 8abe e705 67be 411b 8e3e
00000190: 88b0 02be 161d a9be ec71 6e3e 65a6 5f3e
000001a0: 43fb c33e e96f 51bb 40a0 12b9 49c9 99bc
000001b0: f56b 23bc bed8 a2bb c72e 4e3c f9b8 49bd
000001c0: a2ed ddbb 82f5 bc3c cbfa 7dbc 474d 9dbd
000001d0: d79a bf3d db1b 653d c395 873d 8282 1bbe
000001e0: dab1 5d3e a914 44bd 3576 ae3e d195 9bbe
000001f0: 760a 003e a7f3 1b3e 46ce 0fbe 5f1f 69be
00000200: 95b3 043c 89cd 91be c85f 863e d20e 76bd
00000210: 327c 74bd dfb6 073e 274e a93d 5a2b c13d
00000220: 223a 0abc 14b9 fabc f1a8 e6bd 429c f3bd
00000230: e9b9 293d df49 623d 7629 16be 6402 8cbc
00000240: 2a82 ffbc 477e dc3d 69e1 0a3e e115 59bd
00000250: 2a2f d8ba 3a47 f23d 6d35 94bc 153a e9be
00000260: 2016 28bc 3dfc bbbe c45b 4b3e e01d a6bd
00000270: f4e1 113c 855b a43d 9066 e33e daf0 1e3d
00000280: bb8a bd3e 343d 49be 504c e93d a513 9d3d
00000290: 1b27 c2be fec3 c43d 0279 813e 29a4 03bc
000002a0: 9da7 8e3e 4f38 253e 8a3c 93bc 9872 25be
000002b0: 92d2 15bd d708 53be 3b30 7fbc cf98 0abe
000002c0: a388 0bbe 046d 233d 2e7a 863e 6bc6 413d
000002d0: fc98 a7bd 6d07 353d 30e6 d9bd 8f07 38bd
000002e0: 9e6b b23d 13a7 85bc 514b b0bd 5d59 83bd
000002f0: 74f4 96bd 6b74 f23d 74d1 263d e0ce 94bc
00000300: 1691 943d 8bb9 2bbd 6c6a 913d a175 073e
00000310: b5eb 9fbb 1a1a 8abd f0fb 9c3e 508b c6be
00000320: add3 82bd 6cac 123e 01fc 0abd 341a 013e
00000330: 3c38 923c 5110 94be 9132 c43e 9704 a83c
00000340: 32cf 20be 91bb a13c bb47 d33d 5b95 4a3d
00000350: 202e e63d ad56 13be 9f9a b1bd 0df4 193e
00000360: 0cfd a53d 6e38 1bbe 9ff5 123c 9bb9 24be
00000370: c126 833e 7b3c 143e de66 3d3b 6441 92bd
00000380: 27f3 173e 2bdd 8e3e 0800 b03e 64b3 25bd
00000390: 08bd f43b e90f a5bd 471b 783e 90b9 c9be
000003a0: 43eb 6cbe f3e4 87be 79f6 973d 4964 493d
000003b0: 7712 a83d 7ab3 72be 4b22 f33e 8a4a 18be
000003c0: 5aca b8bc b55c f1bd 34ce 74be 9e30 853e
000003d0: 38c9 adbd 7414 3e3d c210 01be a562 c73d
000003e0: 7482 51bb 104d 823e b0ec b7be 937f 39bb
000003f0: b09a dfbd b3cc 033e 3656 febc 71c0 273c
-0.113531016 0.027619146 -0.12643388 0.11129437 -0.0042381003 0.20349923 -0.0986981 -0.009291016
0.0032787244 0.24558651 -0.05010552 0.046785317 -0.1907532 0.052960332 0.07472321 0.25254908
-0.061831485 -0.17605479 -0.09489132 0.0024118756 -0.07783559 0.20174046 -0.23983414 0.019835107
0.22777078 0.10932257 -0.016640726 0.070833854 -0.21412784 0.3448911 0.02764496 -0.01266106
-0.24626394 -0.028990906 0.035806354 -0.07585025 0.052232493 -0.09940265 0.10829667 0.24147746
0.04077272 -0.090435885 0.0076896576 -0.036102716 -0.10040254 0.10322198 -0.2548611 0.12898597
0.16345946 0.15150116 -0.008883531 0.054506384 -0.11318468 0.27786517 -0.16104513 -0.1173627
-0.050073456 -0.08196546 0.078669205 -0.00806131 -0.030749688 0.091732375 -0.14850551 -0.13639155
-0.05900434 -0.08019612 0.028506692 0.045228843 -0.09199816 0.12691265 0.038121294 0.04629467
0.09017175 -0.07885193 -0.08876061 -0.014973468 0.027893906 0.00396663 0.048773106 0.016832944
0.020616278 0.011663355 0.0077616586 -0.02619061 -0.014745916 0.034951348 0.03331066 0.010073588
0.01968216 -0.047360115 0.1884719 0.25078085 -0.35246408 0.25117838 0.33969003 -0.17745538
-0.14356759 -0.26957703 -0.22560845 0.27755168 -0.12762654 -0.33030003 0.23285645 0.21840818
0.38277635 -0.0031957573 -0.00013983343 -0.018772738 -0.009974469 -0.0049696853 0.012584395 -0.04924867
-0.006772713 0.023066286 -0.015501688 -0.07680755 0.09355705 0.05593477 0.06620362 -0.15186504
0.21649876 -0.047871266 0.3407456 -0.30387738 0.1250399 0.15229665 -0.14043531 -0.22765873
0.008099456 -0.28477123 0.2624495 -0.060072728 -0.059688754 0.13253354 0.082668595 0.09432097
-0.0084367115 -0.03060583 -0.11262692 -0.11895038 0.041437063 0.05524623 -0.14664254 -0.017090984
-0.031189997 0.10766273 0.1356255 -0.05299938 -0.0016493548 0.11829992 -0.018091882 -0.45552126
-0.010259181 -0.3671588 0.19859225 -0.08111167 0.008903969 0.080252685 0.44414186 0.038803913
0.37019905 -0.19652253 0.113915086 0.076697625 -0.3792046 0.09607695 0.25287634 -0.008034744
0.27862254 0.16134761 -0.017973203 -0.16156995 -0.03657777 -0.20608841 -0.015575464 -0.13534854
-0.13626342 0.039898887 0.2626509 0.047308367 -0.08183476 0.044196535 -0.10639608 -0.044929083
0.087119326 -0.016315019 -0.086081155 -0.06413529 -0.073708445 0.11838611 0.040727094 -0.018165052
0.072542354 -0.041924994 0.071003765 0.13228466 -0.0048803934 -0.0674326 0.30660963 -0.38778162
-0.0638803 0.14323586 -0.033931736 0.12607652 0.01784908 -0.28918698 0.3831983 0.020510001
-0.15704039 0.019742759 0.10316416 0.049458843 0.112392664 -0.14388533 -0.0867207 0.15034504
0.081049055 -0.15158245 0.008969693 -0.16086428 0.25615504 0.14476196 0.0028900425 -0.071413785
0.14838849 0.27903113 0.34375024 -0.040454283 0.0074688233 -0.08059675 0.24229155 -0.39399385
-0.2313662 -0.26541862 0.07420058 0.049167905 0.08206647 -0.23701277 0.474871 -0.14872184
-0.022557426 -0.117852606 -0.23906785 0.26013654 -0.08485645 0.046406224 -0.12604049 0.09735612
-0.0031968625 0.2544942 -0.35922766 -0.00283048 -0.10918176 0.12871055 -0.031046968 0.010238753

global_embed_layer.layer.bias f4 [96]
00000000: 70f0 46bd cc3f c5bd c751 ca3d d246 c63d
00000010: fdae 9b3d e269 413c ed49 86bd c7bb 1d3e
00000020: d0a2 d8bd a0cb 41bd c100 433c 6adc 82bd
00000030: b8ff 34bd 772a cb3c daec 7abd 7df6 3f3d
00000040: 70c4 eabc baec 583e 7102 543e 33d9 99bd
00000050: 58ad 853d 0ba9 073e 4daa 9f3d a0ad d13d
00000060: 8f0e e23d 07aa d9ba 14c7 b33d 6eaa b03d
00000070: f97e 653d 553f fe3d 2f8c 1abb fef1 de3b
00000080: ae2a 2abe aa17 4abe 4af7 19be 79ec acbd
00000090: 6550 8bbc cc25 bf3c 0eeb 303d 5465 99bd
000000a0: 609c b33d 4cbe 963d 5b99 cc3d 8736 103c
000000b0: d07b 993b d6c6 39bd 5136 86bc 9add 773c
000000c0: 8d7f 7cbc 7db8 bfbd 716f 9abd 510d 04bc
000000d0: d613 ef3d 82cc 07be 5084 fe3d 1817 36bd
000000e0: 7f8d b43d 151b 43be c069 06be c838 243e
000000f0: 34cb dfbc fd51 02be a7af d4bd 370b 82bc
00000100: 78eb dbbd 2fdd 56bd 21a5 fe3d 68e5 12bc
00000110: d0ee 033d 95e7 953d 2b87 173e b66d efbd
00000120: f967 bb3d acf4 5b3e 2b81 00be 646b dbbc
00000130: 53a2 e3bd 31a9 c0bc bb2e 07bc ff06 10be
00000140: 4e19 9c3d a49a 69bb 64a7 923d 1278 a53d
00000150: 7872 01be d218 31be 37ae 2d3c e951 e63b
00000160: 9b00 64bd 235d 48bd 161e 893c a6e7 53bd
00000170: 9169 373e c7e9 02be c0a2 98bd 4c98 823d
-0.048569143 -0.09631309 0.09878879 0.09681477 0.07601736 0.01180503 -0.06557069 0.15403663
-0.10577929 -0.047313333 0.011902035 -0.06389697 -0.044189185 0.024800522 -0.061261036 0.04686593
-0.028658122 0.21184054 0.20704056 -0.075121306 0.06527203 0.13248079 0.07796154 0.102381945
0.11037933 -0.0016606458 0.087782055 0.08626257 0.056029294 0.124144234 -0.002358209 0.00680375
-0.16617844 -0.1973559 -0.1503574 -0.08443541 -0.017006109 0.023333453 0.043192916 -0.0749003
0.087700605 0.07360515 0.09990188 0.008802063 0.004683949 -0.04535564 -0.016383322 0.0151285175
-0.01541127 -0.0936136 -0.07540787 -0.0080598155 0.11673705 -0.13261607 0.1242758 -0.044455618
0.08816051 -0.190533 -0.13126278 0.16037285 -0.027318574 -0.12726589 -0.103850655 -0.015874488
-0.107382715 -0.05245703 0.124338396 -0.0089658275 0.03221017 0.073195614 0.14797656 -0.116908476
0.091506906 0.21480054 -0.12549274 -0.026784606 -0.11114945 -0.023518177 -0.0082508875 -0.14065169
0.07622014 -0.0035645152 0.071608335 0.08079542 -0.12641323 -0.17294624 0.010600618 0.0070288074
-0.05566464 -0.048916947 0.016737979 -0.05173459 0.17911364 -0.12784491 -0.07452917 0.063767046

memory_embed_layer.layer.weight f4 [96, 26]
00000000: 9606 7e3d d05e 8c3c fe07 913d f39b 96bc
00000010: e52b 1a3d 04d7 d0bd 6f31 7f3d 3de8 1abc
00000020: adda c8bd 303d a33a 5b74 54bd 6d94 b7bd
00000030: 4384 3b3e d73a 45bd 1b31 213f 1568 26be
00000040: bcb3 14bc f3d9 c83e 9b0b a93d 3a8b 153d
00000050: b54c 8cbd e873 993d be8d 353d 257c 09be
00000060: c8f8 0cbb dea2 01bc e549 023d de93 da3b
00000070: 85b5 c93d b4d0 c2bd d481 7bbc 9662 323e
00000080: 16c3 ffbc ac7d 9ebc 17e9 85bb 5e4d 92bd
00000090: 2453 f73d 9af2 b6bd 8f99 ddbd d1c7 97bd
000000a0: 60b2 1dbf 7ff1 febd ee6d b03d 6a78 25bf
000000b0: d185 023e a224 1dbe 14d2 913d 5463 81bd
000000c0: d2b2 a93d 1d88 48be e99e 58bc 82d2 7d3d
000000d0: 1c4a cabd 06e7 01bb 0a88 653c 9dc3 f4bc
000000e0: 67ae ad3c 1816 1fbd a34b 69bd 8765 0c3e
000000f0: 3d7e 13bd 776e 79bd af16 1abd 87be c6bc
00000100: da59 283d 3f5a 333d 46a7 893e 5904 c1bd
00000110: d2a0 5bbd 66b8 0c3c 06fd 83bd fbd7 f03e
00000120: e67d 62bd 4cef 0c3e e69b 40bd 9bfe 913e
00000130: e255 debd 1616 583e bf57 943d 640c a5bd
00000140: 370b 8dbc 8689 fbbd e374 b33c de09 3d3c
00000150: 36b0 a0bd 20c3 20be f3d9 8bbc a7ad 5c3d
00000160: b82f 743d 2cee 97bd 848a b03d fa9e 463d
00000170: c1eb dfbe cd75 0ebe c7d7 623d a129 97be
00000180: 108a 24bc 587f babe b32a c83c d83e febd
00000190: b0d7 c3bd ecac e9bc cd85 dfbd 959f 033e
000001a0: c7b2 5a3c 26ea 76bc a7e9 41bc 6b39 32bd
000001b0: 9467 7abc 9aa1 983c 55da 2b3d 30dd 02bc
000001c0: b0f5 aeba 76f0 753d 88ef 23bd 08d4 ed3c
000001d0: bb18 2a3c 2690 f83b 2e12 4abe dbc7 a83c
000001e0: 8ebd 13bd 056c 053e 94e5 2fbd 3727 adbd
000001f0: 15ca a13d aa45 6f3e 6d9e d4bd b067 e43e
00000200: cee2 f53c 6cc1 2b3d 7352 cd3b 2572 453d
00000210: 6b60 0dbd 83ed 8a3c 7e3f 8bbc 681d 5cbc
00000220: d4c6 c13b a318 1abd 823f 353a a63f b33c
00000230: 7aef a73c 1d2d 96bc f8d1 c4bc 4920 ad3a
00000240: 5009 8cbc d420 05be 6daf adbd 659c e23d
00000250: 12a8 34bd 3226 4abe eb15 6a3c 4aa2 283e
00000260: 1367 9fbd 80eb 993e 05c9 d73c 5d4d 8dbe
00000270: f9fb 92be 7e82 e13e 2af8 3abd 16b3 9d3e
00000280: bbe9 2a3e eb45 193e 0494 3dbe 798c 753e
00000290: e466 ddbe 9c11 a33d e965 a9be c7a0 75bd
000002a0: 5d2a c9bd 8f39 433e b9c4 3fbe 4716 363e
000002b0: 7358 5fbe 16e9 023e 4155 c8bd 4581 333d
000002c0: 9e1c c8bd 8906 0a3e 72ee 083d c2ee 403e
000002d0: 16b9 033d e9a9 0f3d 21ca 283d 5b9c 75bc
000002e0: 7d29 fabd 9014 38ba e24c de3b b3ec dabd
000002f0: b185 843d 532b 93bd 65de 47bd cc4b ae3d
00000300: 7a81 3cbd cbb3 f53c 370a 403d 3e5f 4f3d
00000310: 4a4d b4bd 0b79 3c3d 98aa 20be 1c77 c33e
00000320: c1aa 8ebd 5fe2 c03e 787b 47bc f6e4 d4bb
00000330: 8864 263d b23e 6ebd a9b7 723d 2f3b b33e
00000340: c9a9 afbe 1137 3b3e db18 233d 3b15 1dbe
00000350: 25d0 0c3e c450 5f3e a091 8abe 6cde b03e
00000360: 60f4 77be fff7 0d3c 2952 e33d 806a 24be
00000370: cec3 57be 116b 373e 17e5 0d3f c1af 80bd
00000380: 206e ff3d 7ac8 df3d 211c 34bd 842d 10bf
00000390: 375f 2e3d ec31 f0be 5a89 b4bb 39ea d63b
000003a0: 03b1 8fbd 3aa3 26be 00cf bcbc 0a18 8bbb
000003b0: 2d01 2e3c f7c6 003b 2f83 4e3c c7c9 a33c
000003c0: 6923 5b3c 2b28 e53d ba99 d638 5b3d 73ba
000003d0: 7c2f 00bc 5f7c 173d 9aad 503d 32d8 acbc
000003e0: b39d b8bd 7d64 c23c 199c 143d 370b d8bd
000003f0: dd2d e0bc 48c8 cfbd 0a5a 5f3d aa38 bcbd
0.062018 0.017135054 0.070816025 -0.01838491 0.037639517 -0.10197261 0.062303003 -0.009454784
-0.09807334 0.0012454148 -0.051868778 -0.08963857 0.18312173 -0.048151817 0.62965554 -0.16250642
-0.009076055 0.39228782 0.08254167 0.03650973 -0.06850568 0.074928105 0.04432463 -0.13426264
-0.002151059 -0.007912366 0.031808753 0.006670459 0.09849075 -0.09512463 -0.015350778 0.1742042
-0.031220954 -0.019347034 -0.0040866244 -0.07143663 0.12076405 -0.08932991 -0.108203046 -0.07411159
-0.61600304 -0.124484055 0.086147174 -0.6463686 0.1274636 -0.15346006 0.07120147 -0.063177735
0.082860604 -0.19583173 -0.013221481 0.061968334 -0.098774165 -0.0019821539 0.014009485 -0.029878432
0.021201326 -0.03883943 -0.0569569 0.13710605 -0.036009062 -0.060896363 -0.03761929 -0.024260772
0.041101314 0.043787237 0.26885432 -0.094246574 -0.053620167 0.008588886 -0.06444745 0.4703978
-0.055295847 0.1376316 -0.047023676 0.2851456 -0.108562246 0.21102175 0.07243299 -0.08059004
-0.017217262 -0.1228209 0.021906322 0.011537997 -0.078461096 -0.15699434 -0.0170717 0.053876545
0.05961582 -0.074184746 0.0862017 0.048491456 -0.43734553 -0.13912125 0.055381563 -0.29523948
-0.010042682 -0.3642528 0.024434423 -0.1241433 -0.095626235 -0.028524838 -0.10914192 0.12853844
0.013348288 -0.015070474 -0.011835492 -0.04351179 -0.015283484 0.018631745 0.041956265 -0.0079873055
-0.0013348367 0.060043775 -0.040023357 0.029031768 0.010381873 0.007585543 -0.19733498 0.020603111
-0.036069445 0.13029487 -0.042943552 -0.08454745 0.07899872 0.23366418 -0.1038178 0.44610357
0.030015375 0.04193251 0.006265932 0.04820456 -0.03451578 0.016958958 -0.016998049 -0.013434745
0.0059135947 -0.03762115 0.00069140655 0.021880936 0.020499934 -0.018332059 -0.024025902 0.0013208474
-0.017094284 -0.13000804 -0.084807254 0.11064986 -0.044105597 -0.19741133 0.014287452 0.16468158
-0.07783332 0.30062485 0.02634097 -0.27598086 -0.28707865 0.4404487 -0.045646824 0.30800694
0.16690724 0.14968078 -0.18513495 0.23979367 -0.43242562 0.07962343 -0.33085564 -0.059967782
-0.09822533 0.19064926 -0.18727387 0.17781936 -0.21811084 0.12784228 -0.09781886 0.043824453
-0.09771083 0.13479055 0.033430524 0.18841079 0.032158934 0.03507415 0.04120839 -0.014990891
-0.122149445 -0.0007022107 0.0067840675 -0.10689678 0.06470812 -0.07185998 -0.048796076 0.08510551
-0.046021916 0.029992959 0.04688474 0.05062794 -0.08803804 0.046013873 -0.15690076 0.3817681
-0.069661625 0.37672707 -0.012175433 -0.006497021 0.040623218 -0.05816526 0.059257183 0.3500609
-0.34309223 0.18282725 0.039818626 -0.1534013 0.13751276 0.21808153 -0.27064228 0.34544694
-0.24214315 0.008665084 0.11099655 -0.16056252 -0.21070787 0.17911936 0.5542769 -0.062835224
0.124721766 0.1092691 -0.04397214 -0.5631945 0.042571273 -0.46913087 -0.0055095376 0.0065586832
-0.07016184 -0.16273203 -0.023047924 -0.004244809 0.0106203975 0.0019649842 0.012604519 0.019993676
0.013375142 0.11189302 0.00010232949 -0.0009278857 -0.007823821 0.036983844 0.05094681 -0.021099184
-0.09014454 0.023729557 0.03628168 -0.10549014 -0.02736562 -0.101456225 0.054529227 -0.09190495

memory_embed_layer.layer.bias f4 [96]
00000000: 89cf 9dbc 882b 573b 63d5 823c 25e7 843d
00000010: a717 8dbc 55f7 5a3d 4333 e8ba 7799 a2bc
00000020: a1e1 a3bb 223c 3cbc f9b4 363d e6f2 1abc
00000030: 7f0e 1dbb 94d2 45bd 995e 3c3b 3b61 85bd
00000040: 83f9 cd3c 7afc 07bd 0412 be3c 711c c33c
00000050: 2a41 063e 8062 f43c 2447 2a3c 7b37 2d3d
00000060: decf b3bc 4769 833b 1b98 99bc 2729 99bd
00000070: 32b6 a0bb 8e59 9ebb d455 7d3b cb2a 7ebc
00000080: 395a d13c 755e 9b3c 4a36 7f3c fa9c c83c
00000090: cef1 423c 3291 a8bc 747c 14bd 74c6 8f3b
000000a0: 7b2c a63c 3079 16bd 5b3a 94be 64f5 df3c
000000b0: d117 07bd 7dec ae3d e98c 43bc eedf b3bc
000000c0: 8f10 56bd daf6 3c3d cd82 a13c e5a0 d2bc
000000d0: b3ef efbb df4d 213d 5c78 e13b 833c 2c3a
000000e0: ce88 3abc d846 f13c c473 f73b 493b 07bc
000000f0: 2607 5f3c 8ed0 aabc 3fa3 f63d 0d44 bfbb
00000100: f429 fd3c 8ebe 213c 8e74 063d 0539 d8bc
00000110: 33e3 ee3c feb3 89bd 1bce a5bc 865c 773d
00000120: 1b83 ccba ec56 51bc a99a 8cbc 3cb5 00bd
00000130: 761e 0a3c f672 2fbc ce56 39bc 9f69 c13d
00000140: 29e0 343c c02b 6bbc 97c6 96bd 0fc5 22bd
00000150: 99b5 623c 3c59 a03d c524 57bc 919e 6bbd
00000160: b40d b53c 1aa8 ba3b 7fa0 04bc 3de6 263c
00000170: ce53 883c f91f a73d 1857 103b e361 0fbd
-0.019264 0.0032832343 0.015970891 0.064894 -0.017223192 0.05345853 -0.0017715472 -0.019848568
-0.0050012623 -0.011488946 0.044606183 -0.009457326 -0.002396494 -0.048296526 0.0028742908 -0.06512686
0.02514339 -0.033199765 0.02320195 0.023817273 0.13110796 0.029832125 0.010392938 0.04228924
-0.021949705 0.004010353 -0.018749287 -0.07478552 -0.004904532 -0.004832453 0.0038655894 -0.015513132
0.025555717 0.018965939 0.015576908 0.024488915 0.011898471 -0.020577047 -0.0362515 0.004387671
0.020284882 -0.036736667 -0.28950772 0.027338691 -0.032981697 0.085412 -0.011935451 -0.021957364
-0.052261885 0.046133853 0.019715691 -0.025711486 -0.0073222755 0.039380904 0.006880803 0.0006570296
-0.011385156 0.029452726 0.007551642 -0.008253881 0.013612544 -0.0208514 0.120428555 -0.0058369697
0.030903794 0.009872092 0.032826 -0.026394377 0.029161071 -0.06723784 -0.02023988 0.06039097
-0.0015603037 -0.012777071 -0.017163591 -0.03142284 0.008430114 -0.010708561 -0.0113122 0.09443974
0.011039772 -0.0143536925 -0.07362097 -0.03973871 0.013837242 0.0782952 -0.013131325 -0.057524268
0.02210126 0.005696309 -0.008094906 0.010186729 0.016641524 0.08160395 0.0022024568 -0.03500546

tfm.layers.0.attention.query.layer.weight f4 [96, 96]
00000000: e072 f83c 49c5 fc3d b584 d7bd c1da f03d
00000010: 6f2d f5bc 0ccd 01be 1628 443d aa15 ffbd
00000020: 69e2 d2bd 7964 593d 6b56 24bc 6bae ee3d
00000030: 9865 aabd fa06 153e 6d9f 403e 1809 543e
00000040: 174a 573d a085 ddbc 042d 9d3d f8fb 05be
00000050: 71ca d13c 0fdb 323c 7ff6 f23d 49a0 11bd
00000060: 86d5 823d 7fd8 e23d e2a3 01be d15a 10bc
00000070: 5695 433d 5998 abbd e387 543e e625 c63c
00000080: 9ee5 f1bd cfdc a0bd ce75 c2bd e018 dabd
00000090: efb2 b13d 6b52 d1bc 77d3 0f3e 6636 693d
000000a0: 7401 d13c b7d1 59be acae 11be 4b8f 723d
000000b0: ee14 e9bd 4d0c 1c3d dc67 d6bb 4234 54be
000000c0: 2a7a 4b3e 8846 2e3e 91b9 f9bc 4183 063e
000000d0: e236 70bd 000a 243e 0e96 a4bb 7316 3abb
000000e0: 6b7c 59bd d5b5 fbbb 3c51 d5bc 1c73 03be
000000f0: 5389 023e ae50 f83d 6460 01be 56d0 0e3d
00000100: 6989 093e 3534 6e3d 11aa 9dbd d55c 1f3d
00000110: 7680 73bd c3a3 cebc 8d8c 873c 6385 15b7
00000120: f525 c6bd d0f8 953c 4646 853c b00d 613e
00000130: 1aa9 85bd 1cb2 cfbd 6fa3 10bd 8a69 b83d
00000140: b625 fe3d 9668 04bd e5b3 85be 7460 193d
00000150: ffdf 3e3d 5859 20be a245 41bd 23a5 253e
00000160: ac57 373e 3b19 45bd 8b95 cdbc ce93 28bd
00000170: c818 233d 0838 e4bd d832 2a3d a9e8 ef3d
00000180: e42c 7e3c d9f3 41bd 620c 123e a78d 153e
00000190: 09a9 45bd 4e23 1c3b 14a7 283e 7a79 8e3d
000001a0: c047 91bb 80ea 583d 1e65 763d fa14 2d3d
000001b0: 9dbe e83d 17e7 a0bd 09e0 7abc 87f4 0d3e
000001c0: 0d10 c83d c334 513d 1a0e 163e d33b 423e
000001d0: 7573 6e3d 4cc1 6d3b c827 013e e4de 82bd
000001e0: 3876 723d b6f3 9ebd da09 8ebc 96a9 38be
000001f0: af21 f73d 8e04 48bd e59e e13d 3d4c 0f3d
00000200: 8f51 853b 61d1 b13a 5d0f 09be 7d56 babd
00000210: 7cd2 e9bd 0dfc 223e 68aa 60bc 421b 22bd
00000220: 3911 0f3e 17f3 b43c 8203 9fbc f984 f2b6
00000230: 7cd5 a53c 2727 afbd e274 ee3c 5317 8d3d
00000240: b85e 203e cf7d 803b 9d66 9cbd 07cc 143e
00000250: 6fc3 eabd 9a06 5d3e eec9 b13d 0898 973d
00000260: 9e8f d53d 0118 d2bd 9e69 113d 7414 aa3d
00000270: a5a2 72bc 56b5 dbbe 20ec 34bd 1848 81bd
00000280: b2ae b5bd 07b9 583d 9244 7a3c 8415 0b3d
00000290: 920f 353e b959 dc3d 64c0 00bd a021 eebd
000002a0: ad94 ad3d dd0f e9bd 7928 b2bd ea53 87bd
000002b0: dada 34be f8ef 3cbe 6f08 303d 4a0d 11be
000002c0: 41c4 b83b 51e4 a9bc 9327 173e 65b6 b23d
000002d0: 9256 46bd 8c08 023e bdb7 ac3b e764 753d
000002e0: 204d 133e 1251 c8bc 21ca 913c ac11 053e
000002f0: 7a30 033e 58c7 79bd 1857 b1bc 3ee4 b93c
00000300: 3bee b3bc df87 cabd 1e91 b33b 3587 cc3c
00000310: 6f9c c8bd 98d0 a6bd f5fd 94bd f19c d0bd
00000320: 61b6 55bd 9554 81bd b431 73bd 0425 2cbd
00000330: 032f 15bc 1de3 06bd 3038 523c 5441 eeba
00000340: 1e06 933d 8343 3bbc 4f4a 533d 6cff a93d
00000350: 3b5c 233b 7e0a 173d 652f 72bb e319 5cbc
00000360: 4a8d a9bc 9c18 4d3d 250a ac3d 996f 8c3d
00000370: 9dff d23d 5bf4 0cbe d01f 1c3e aa6e 4dbd
00000380: 85e6 9fbc dc13 64bb 91dd 54bd eaed 383d
00000390: 4ec6 b0bc 8446 863b 92ba b4bd 7623 d73b
000003a0: 0c01 733d 38ab bf3c 72bd fc3d 82f1 b03d
000003b0: 9107 e73d aa3a f73d bc63 b43c 13f9 2fbc
000003c0: acd3 6a3e 50c1 b1bc 1b87 98bd 99ae e33d
000003d0: 6282 843d be5e 21be 1924 84bc 775d a0bc
000003e0: 7507 9e3b ba74 923b dcab 69be 8cc5 fa3c
000003f0: af16 543d fba8 4a3e 9b15 87bd 630c 53be
0.030328214 0.12342317 -0.10523359 0.11760474 -0.029928891 -0.12675875 0.04788979 -0.12455304
-0.102970906 0.053074334 -0.010030369 0.11654361 -0.08320159 0.14553443 0.18810816 0.20706594
0.052560892 -0.027041256 0.07674602 -0.130844 0.025609227 0.010916485 0.11863422 -0.03555325
0.063883826 0.110764496 -0.12660173 -0.008810715 0.04774984 -0.083786674 0.20754962 0.024187993
-0.11811374 -0.07854616 -0.09495126 -0.10649276 0.08676707 -0.025551995 0.14045511 0.056936644
0.025513388 -0.21271406 -0.14226788 0.059218686 -0.11380945 0.03809767 -0.0065431427 -0.2072306
0.1987082 0.17019093 -0.030483993 0.13136007 -0.05864609 0.1601944 -0.0050227707 -0.0028394728
-0.05309717 -0.007681588 -0.026039712 -0.1283688 0.12747698 0.121247634 -0.12634426 0.034866653
0.13431324 0.058155257 -0.07698453 0.03890689 -0.05944868 -0.025224572 0.016546512 -8.912149e-06
-0.096752085 0.01830712 0.01626886 0.21977878 -0.06526394 -0.101413935 -0.035312112 0.09004505
0.124095365 -0.032326303 -0.2611381 0.0374455 0.046600338 -0.15659082 -0.047185548 0.16176276
0.17904538 -0.048119765 -0.025095722 -0.041156583 0.039818555 -0.111434996 0.041552395 0.11714298
0.015513632 -0.047351692 0.14262536 0.14604817 -0.048256908 0.0023824754 0.16469985 0.069567636
-0.004433602 0.05295801 0.060155027 0.042256333 0.113644816 -0.07856577 -0.015312203 0.13862811
0.097686864 0.051075708 0.14653817 0.18968134 0.058215577 0.0036278544 0.12612832 -0.06390169
0.059194773 -0.07761328 -0.017338682 -0.18033442 0.120669715 -0.04883247 0.11016635 0.034984816
0.0040685604 0.0013566428 -0.13384767 -0.090985276 -0.114171 0.15916462 -0.013712503 -0.039576776
0.13971414 0.02208857 -0.019410852 -7.227642e-06 0.020243399 -0.085523896 0.029108468 0.06889214
0.15661132 0.0039212476 -0.076367594 0.14530955 -0.11463057 0.2158455 0.08681093 0.074020445
0.104277834 -0.10258485 0.035501115 0.083046824 -0.014809285 -0.42911786 -0.0441705 -0.06312579
-0.08871211 0.05291083 0.0152751375 0.033956066 0.17681721 0.10759301 -0.031433478 -0.11627507
0.08475623 -0.11379979 -0.08699126 -0.06607802 -0.1766161 -0.18450916 0.042976793 -0.14165226
0.0056386297 -0.020738753 0.1476119 0.08726195 -0.048422404 0.12698573 0.0052709267 0.05991068
0.1438489 -0.02445272 0.017796578 0.12995023 0.12811461 -0.060981125 -0.021647975 0.022691842
-0.021964183 -0.098891966 0.005479946 0.024966815 -0.09795462 -0.08145255 -0.07275001 -0.10186184
-0.052175883 -0.06314961 -0.059373572 -0.04202749 -0.009105447 -0.032931436 0.012830779 -0.0018177428
0.07178901 -0.01142967 0.051584538 0.08300671 0.00249268 0.03687524 -0.003695452 -0.013433906
-0.020697255 0.050072297 0.084003724 0.06857223 0.103026606 -0.13765089 0.1524651 -0.050154366
-0.0195191 -0.0034801876 -0.051969115 0.045148768 -0.021578934 0.0040977616 -0.08824648 0.0065655066
0.05932717 0.023397073 0.12340821 0.08639814 0.1128074 0.12071736 0.022020213 -0.010740536
0.22932309 -0.021698624 -0.07447644 0.11117286 0.06470181 -0.15758798 -0.016130494 -0.019575818
0.0048226663 0.0044694813 -0.22819465 0.030611776 0.051779445 0.19791023 -0.06595918 -0.20610194

tfm.layers.0.attention.query.layer.bias f4 [96]
00000000: 9c28 8e3e 9873 83be 9b4a b4be c663 b5be
00000010: 2018 63be f768 6f3e c6ed c7be e81d 9fbe
00000020: 658a 8ebe d865 bf3e 9397 c2be ee64 da3e
00000030: 64bc 7abd f0b7 a63e bdbb 883e 01b3 d53c
00000040: 8a45 a43e 1497 b739 d2cb c23e a061 053f
00000050: 09f5 ccbe 763f 913e 68f8 b7be 77b2 aa3e
00000060: de97 083f b934 e73d 7aab 183f c706 083f
00000070: ff6e 9f3e 5232 243f a671 393e 2016 513e
00000080: 3acc 89be fe74 073e e8a5 c8be c13a 8b3e
00000090: 89dc 8bbe 44b4 21bd c6ce bb3e 761a b83e
000000a0: b4dd 013d de43 b1be 8007 32bf d8fb 4a3d
000000b0: 0265 273f 4f99 37be c781 14be e0c0 453e
000000c0: def6 f5be 51ec 0ebf 8548 0f3f 5a3e 6abe
000000d0: c192 0bbf 3ab7 17be 5ef1 61bc 954d c33e
000000e0: 76f8 8c3e 2c71 10be 4490 b13e 3487 963e
000000f0: 502c 08bf f111 d8bd c648 413e 5885 ff3e
00000100: c5ee 00bf 6195 a1be 042b 293e 5a09 233e
00000110: b319 d3be b2df 5abd 9240 28be 9dd7 d9be
00000120: 2a93 59be df62 17bf 0984 15bf 36bc 3c3c
00000130: 7561 a43d f99d 003f 27af 023f 0f7b c4bd
00000140: f9cb 1e3f cde7 cb3e b950 323f 24d7 1dbf
00000150: 229a 03bf 20c5 febd 555c e0be 9008 29bf
00000160: 77ac 20bf 638c ee3e 2c6c 78be 9684 1bbf
00000170: e900 003e 700e 123f d3bf 613e 7ac9 0ebf
0.27765357 -0.2567413 -0.3521317 -0.35427684 -0.22177172 0.23379885 -0.39048594 -0.31077504
-0.27839962 0.37382388 -0.38006267 0.42655128 -0.06121482 0.32562208 0.26705733 0.026086332
0.32084304 0.00035017042 0.38046128 0.5210209 -0.40030697 0.2836873 -0.35931706 0.33339283
0.5335673 0.11289353 0.5963665 0.5313534 0.3113937 0.6413928 0.1810976 0.20418596
-0.26913625 0.13228223 -0.39189076 0.27193263 -0.27316692 -0.039478555 0.36681193 0.35957688
0.031705573 -0.3462209 -0.69542694 0.049556583 0.653885 -0.17929576 -0.14502631 0.19311857
-0.48039907 -0.5582934 0.5597003 -0.22875348 -0.54520804 -0.14815989 -0.013790457 0.38145128
0.2753331 -0.14105672 0.34680378 0.29400027 -0.53192616 -0.10550297 0.18875417 0.4990642
-0.50364333 -0.3155928 0.16520315 0.15921536 -0.41230544 -0.05343599 -0.16430882 -0.42547312
-0.21247545 -0.5913524 -0.58404595 0.011519482 0.08026401 0.5024105 0.5104851 -0.09593784
0.6202999 0.39825287 0.69654423 -0.61656404 -0.51407063 -0.12439942 -0.43820444 -0.6602869
-0.6276316 0.46591482 -0.24260014 -0.60749185 0.12500347 0.5705328 0.22045831 -0.5577618

tfm.layers.0.attention.key.layer.weight f4 [96, 96]
00000000: c818 a7bc 4330 6f3e 8786 0cbd 3acc 3e3d
00000010: f46c 51bc b2f7 773d cd2a 773c bb83 61bc
00000020: dd27 db3d faf5 9ebc 2778 10be 928c 8cbd
00000030: 0267 96bb 6253 5dbd 95c7 7b3c 554e 86be
00000040: 0bd3 eabd 5b4a b1bd a6fb 2d3d 0f12 8f3d
00000050: 2ba6 90be 31e2 78bd a6ec 393e b580 0fbe
00000060: 9a92 b23d e836 00be 0219 dabd 4474 e1bd
00000070: ec33 fa3d 6287 2a3d 1948 0fbd ecfa 3038
00000080: d683 363e f415 7fbd 7658 51bd 93d4 06bd
00000090: ead0 06bd a6e1 e83d c168 91bd 1d56 803d
000000a0: b2b5 be3d c7ec 7cbc 865f dabd 8c11 de3d
000000b0: 926d 14be 77bf 013c cd4d 6e3d d531 913d
000000c0: ee86 6abe 3e2a 2bbd 53c5 473d ccc4 9bbd
000000d0: aaf2 7ebc 6e1d 5cbd 4c21 063c 60aa fbbc
000000e0: c111 d4b9 79c2 dc3c 86e2 273d ea58 62bd
000000f0: aca8 463c 9d9d 1dbd 2038 6d3e 6e81 193e
00000100: fde5 c3bc a62b 663e d59f c13d bec0 f03c
00000110: dd85 f8bd 45a4 223e d1cc 4d3e 5cae f8bd
00000120: 586f 323b f2a0 aebc 9aec 1bbd b827 603d
00000130: 8b96 3bbd bb21 893d 5cef 1b3e 7c77 623e
00000140: 6cc7 953d 22ab a3bd 1fb1 893d 0a24 56be
00000150: 8287 133d 1b8d a1bb 6cf5 273e 1fb7 7d3d
00000160: 90ff 823d 9ea1 81bd 15fa 393e 83a7 cabd
00000170: 866a 0b3e 8de4 f1bc 2a1e ee3c b4f3 c23d
00000180: 38a7 943c 37fa d1bc cc02 48bd 3542 33bd
00000190: 4f5d a8bd 1d00 63bd 7be7 ca3d fa92 423d
000001a0: f259 81bd 7385 c4bd a3bd ba3d a489 853c
000001b0: 2e16 963d 6bfe 143e 25f5 0bbe 9645 053e
000001c0: 8f07 113e 4abb 8e3c f764 0ebd 33b5 953c
000001d0: 6ed3 0e3e 7f92 01be fa15 553d 47e3 4d3d
000001e0: e101 90bd 73ae 39bd 3cad 33bd 6381 44bd
000001f0: 0396 483c 14bd cabd a03f c1bc 6a85 083d
00000200: 0976 3cbd fa7c 1fbd f625 ce3d cfb1 47bd
00000210: 257e 163d 5b8e 2ebe 67d4 d73d 8602 ad3c
00000220: fa1a f63c df40 b43d 01c5 573e 061d 033e
00000230: 658f 0d3e 22f3 30bd d43d 9fbd d284 00be
00000240: c5ba 833e 3812 49bd 196f 873d 6a57 28bd
00000250: 36e6 b2bd edd1 a03c 31cc dabd 65eb 923d
00000260: 34a2 c03c 5439 2d3d bd80 feb9 751d 813d
00000270: 9f9d 92be 4a10 bdbd 67e2 70be cc84 25be
00000280: 806c 14bc ed7b 5bbe edc9 d63d 7138 763d
00000290: c47b d1bd 3443 9dbd 7472 ce3d c876 afbd
000002a0: 5d46 563e 7c58 f5bc 4d23 9cbc b05c 81bd
000002b0: c809 05be 3c24 2fbc e337 9bbc 5da4 42bd
000002c0: 0ba4 223e dbc5 963d 21a2 673d f793 163d
000002d0: 4c49 5cbd 0d01 7fbe aea1 fd3d bdba f6bd
000002e0: 7d4b 32bc 793e 923d 0c3a 823d a671 c23d
000002f0: 96e7 eb3c 69d1 8c3d 82e9 e43d f679 16be
00000300: 7d8c 1b3e 0399 10bd 63b3 59bc a8de ec3d
00000310: b80f 683d 0494 00bd ef72 1ebe 2ac4 623d
00000320: 9093 a3bc 2aaa 5bbd fea0 acbd 56e6 1e3c
00000330: 3163 8f3d 61d6 25bd c5b7 cabd 52bd 253e
00000340: 37ab 43bc b29d 683d 747e a0bc a9fe 313d
00000350: a114 3e3e acaa 683d 0a90 cb3d e37b a9bd
00000360: 03d1 96bb 19f2 093d 3b01 8d3c 467e 75bd
00000370: f5f4 8c3d 8ce3 3dbe 38af 0a3e 0a1a 9e3d
00000380: aab7 8cbd e37f 9ebd e81e 193e e718 b8b9
00000390: 89b2 d03c 1d40 a33d 72d8 333e dc33 453d
000003a0: 8159 7dbb dd82 3c3e b2ed 923e e01d 783a
000003b0: e4eb 083e 1645 b9bd eb60 a4bd 1979 b4bd
000003c0: 80db 1c3e 3c81 06be 21bd 923e ced0 cf3d
000003d0: 5fc2 9d3d a6f1 53bc 6971 223e f436 6ebd
000003e0: d1f5 2d3d 41fc 0e3d 0cb2 d2bd d14f 07bd
000003f0: c25a fbbc dc40 88bc 7fcd 20bd c8d6 083d
-0.020397559 0.23358254 -0.034307983 0.046581484 -0.012782324 0.060538955 0.015085888 -0.013764317
0.10700963 -0.0194044 -0.14108334 -0.06862749 -0.004589916 -0.0540346 0.015367408 -0.26231638
-0.114660345 -0.0865676 0.04247632 0.06985866 -0.28251776 -0.060762588 0.1815668 -0.14013942
0.08719368 -0.12520945 -0.10649301 -0.11008504 0.122169346 0.041633017 -0.034980867 4.219536e-05
0.17823729 -0.062276796 -0.051109754 -0.03291757 -0.03291408 0.11371164 -0.07100058 0.06266425
0.093119994 -0.0154373115 -0.10662751 0.108431906 -0.14494923 0.007919184 0.058179665 0.07089583
-0.22903034 -0.041788332 0.048772167 -0.076058954 -0.015560785 -0.053739004 0.0081866495 -0.03072089
-0.0004044902 0.0269482 0.040987514 -0.055260576 0.012125175 -0.03848039 0.23165941 0.1499078
-0.023913378 0.22477588 0.09454314 0.029388782 -0.121349074 0.15882976 0.20097663 -0.121426314
0.002722701 -0.02131698 -0.038067438 0.05472538 -0.045797866 0.06695887 0.15228027 0.22115892
0.07313427 -0.07991625 0.06723236 -0.20912185 0.036017902 -0.004930151 0.16402215 0.061942216
0.06396401 -0.06329654 0.18161805 -0.098952316 0.13614854 -0.029527927 0.029067118 0.09519139
0.018146142 -0.025632007 -0.048830792 -0.04376431 -0.08220922 -0.05542003 0.09907433 0.04750345
-0.06315984 -0.09595766 0.091182016 0.016300984 0.07328449 0.14550178 -0.13667734 0.13014826
0.1416304 0.01742329 -0.034764256 0.01827488 0.13947842 -0.1265354 0.05202291 0.050265577
-0.070316084 -0.045332383 -0.04386638 -0.047974955 0.012242797 -0.09899345 -0.02358991 0.03333036
-0.046011005 -0.038937546 0.10065834 -0.048753556 0.036741395 -0.17046492 0.105385594 0.021119367
0.03004216 0.08801436 0.21071245 0.1280404 0.13824232 -0.04320062 -0.07775465 -0.12550667
0.2572843 -0.04908964 0.06612987 -0.04109899 -0.087353155 0.01963135 -0.10683478 0.07173804
0.023514844 0.042291 -0.00048542573 0.063044466 -0.2863588 -0.092316225 -0.23523866 -0.16163939
-0.009059072 -0.21433993 0.10487733 0.06011242 -0.102286845 -0.076788336 0.10080424 -0.085675776
0.20925279 -0.02994942 -0.019059801 -0.06316507 -0.12992013 -0.010689791 -0.018947547 -0.04752003
0.1588289 0.07361957 0.056551103 0.036762204 -0.05378084 -0.24902745 0.123843536 -0.12047336
-0.010882256 0.07140822 0.06358728 0.09494333 0.028796952 0.06875879 0.111773506 -0.14694962
0.15190311 -0.035302173 -0.013287398 0.11565906 0.056655616 -0.03139116 -0.15473531 0.055362858
-0.019967824 -0.053629078 -0.08429144 0.009698471 0.07001341 -0.04048765 -0.098983325 0.16185501
-0.011942676 0.056791015 -0.019591548 0.043455753 0.18562557 0.05680339 0.09939583 -0.08275583
-0.004602553 0.033678148 0.0172125 -0.059934877 0.06882659 -0.18543833 0.13543403 0.0771981
-0.06870969 -0.07739236 0.14953196 -0.00035113769 0.025475757 0.07971213 0.17563036 0.04814516
-0.0038658085 0.18409295 0.28696972 0.0009464901 0.13371235 -0.0904638 -0.08026298 -0.0881216
0.15318108 -0.13135237 0.2865992 0.10147248 0.07703089 -0.012936031 0.15863575 -0.058157876
0.042470757 0.034908537 -0.10287866 -0.033035103 -0.030682925 -0.01663249 -0.039258476 0.033407956

tfm.layers.0.attention.key.layer.bias f4 [96]
00000000: 6645 ffbc c851 b9bb 41ce b73c a08f 75bc
00000010: c283 85bc de30 97bc 7619 01bd b366 ddbc
00000020: 8bf4 32bd 2f62 ba3c 8252 143d d963 243b
00000030: afd9 ab3c 724b 8abc 5fad 1b3c 3d8a f03c
00000040: c2be 0c3c 0ad8 cabb 441e 9a3a 2610 803b
00000050: 3f4f 4fbb 27d2 a83b 111f 163c b6ab 093c
00000060: 5e26 aa39 00d7 c5ba bf35 8fba 1e24 90bb
00000070: e1e5 a6b9 c6ea 573b 8ae2 18bb 2d24 e23b
00000080: ea54 d4bb 8d8f 0d3c bc3b a6bb 5ef7 bc39
00000090: 71bd f13b 9d50 1cb9 6adf c13b 6a64 353b
000000a0: 2104 f839 19e3 ad3a 964a bcbb 9753 86bb
000000b0: 1af4 ed3b ff9a 9dbb 0d34 93bb 964e 0c3b
000000c0: 8112 a336 29b0 8b3a 1b4c ad3a 7283 2b3b
000000d0: 0f0e 483a 2cd1 b5ba 7fc2 28b9 4cfb 1cba
000000e0: e8cf d33b 18f6 5fbb 83ad adba 1953 833b
000000f0: 5f06 8e39 e763 c23b 325c 63bb 5893 1dbb
00000100: 3c75 373a 0816 76bb c99a 09bb 215d 473b
00000110: 1871 25ba 2f12 3cba 979c 0abb 02ff 5bba
00000120: a664 38bb 6148 5eb9 0f2b fd3a b4ea 843a
00000130: 60fb da3a f5a8 e53a 62b9 07b9 7a1f 433a
00000140: 0b2e 03bc 6ab5 283d 4651 b63c 16a3 0dbd
00000150: c271 ebbd d8d1 5c3c 68c7 df3c 62d0 0fbd
00000160: 046c f5bc d51a fbbc e6f3 4e3d b14c 263d
00000170: 74b7 353c c224 703d e61a 95bc f9f5 82bd
-0.031161021 -0.005655501 0.022437217 -0.014987856 -0.016298179 -0.018455919 -0.031518422 -0.02702651
-0.043690246 0.022751896 0.036211498 0.0025083928 0.020977823 -0.016881678 0.009501784 0.029362792
0.008590402 -0.0061903046 0.0011758287 0.003908175 -0.0031632928 0.0051520052 0.00916268 0.0084027555
0.00032453513 -0.0015093982 -0.0010926052 -0.0043988368 -0.0003183326 0.0032946332 -0.0023328387 0.006901285
-0.006479849 0.008640182 -0.005073039 0.00036042457 0.0073773195 -0.0001490735 0.0059165256 0.002767826
0.00047305322 0.0013266533 -0.005746196 -0.00409932 0.007261765 -0.0048097367 -0.004492289 0.0021409146
4.8599327e-06 0.0010657358 0.0013221534 0.0026170877 0.00076314894 -0.0013871542 -0.00016094184 -0.0005988374
0.0064639933 -0.0034173783 -0.0013250563 0.0040077087 0.00027089097 0.0059323194 -0.0034692404 -0.0024044123
0.0006998365 -0.0037549753 -0.00209968 0.00304205 -0.0006311103 -0.00071743404 -0.0021150464 -0.0008392186
-0.0028136163 -0.00021198533 0.0019315201 0.0010140748 0.0016706996 0.0017521667 -0.00012943664 0.000744335
-0.008006583 0.041188635 0.022255551 -0.03457936 -0.11496307 0.013477765 0.027316764 -0.03511084
-0.029958732 -0.030652443 0.05052557 0.040600482 0.011091102 0.058628805 -0.018201303 -0.06394572

tfm.layers.0.attention.value.layer.weight f4 [96, 96]
00000000: d3a8 013e c317 cb3d 7da9 e8bc a9f0 943d
00000010: 4123 47bc e2f6 9b3c 495f 33be f75b fabc
00000020: 4284 c2bc b454 39bd 8b72 2c3d 224f 5cbd
00000030: 9ad0 cfbd df52 3dbd a758 7ebd 6e42 e6bb
00000040: 887d 93bd ec49 e6bd d02c a0bd 81f8 97bd
00000050: 604a 39bd 9e1b a0bd 5de8 72bd f43e 873d
00000060: 1a78 a33d 3d4d c93d 357c 823d ba5f a13c
00000070: a75c 223d 17fe 90bd 8a1a ffbd 2aaf 8cbd
00000080: 1346 1a3c babb 483d 2fc6 6c3c bb72 ab3c
00000090: b0b7 803d 344b 813d 7f54 0fbd 4a46 943d
000000a0: 2373 3f3d 02e5 483d 94b8 efbd a20c aebd
000000b0: 0cb5 913b d91f e6bc 528f b9bc 9180 963b
000000c0: 972e c93d 8a4b 20bd 2408 2cbe 8b58 46bd
000000d0: 536a 433d 0875 643d 8dd1 643d e7f9 cdbc
000000e0: 8337 b73d 24c1 47bc a868 083d a377 713d
000000f0: f3ea 283b 544e 2bbd f6a8 ce3d dffd 87bd
00000100: 96be bebd 670d ff3c 7cdb a43d 9e7f 90bc
00000110: 8b16 293d 2edb cbbc aabb 123e c257 f53c
00000120: 6a99 c5bb 32ed 873c dd72 503d 80b0 f8bb
00000130: 766c 463c b96a 5ebd 72d1 34bd 02e0 663d
00000140: c6dc 4abd 89a7 b3bd 2c56 1b3a 10d4 2abd
00000150: 080e e83d 6cde 9e3c 98c8 873d 994d f7bd
00000160: 4727 6abd d00a 98bc eb20 c8bd d331 1fbd
00000170: c1a3 d4bd f055 1bbd fd49 05bd 6fed d93d
00000180: db0b b33c 24cb e8bc 2d12 b33c 03cc b1bd
00000190: b914 60bd 4185 2b3e 6d1f fdbd d0a2 a8bc
000001a0: c438 1abd cb2c d73d d4e7 86bd f073 923d
000001b0: 1780 f1bd bd6a fd3b 63b0 c23d 544d ddbc
000001c0: 75ca 263d 0d9b a0bd 0043 683c 0742 eebd
000001d0: 5676 823d 402f a0bd 1aa0 56bd 05eb af3c
000001e0: 4881 1f3e d19a 553d 3c92 18be f2cd 2b3d
000001f0: b31c d1bc d15a 66bc 0aba b7bd 04b3 b73d
00000200: 006d f8bd 1582 b33d e714 0e3c d06b 43bd
00000210: 5b5a 583d 5fc7 173d c2e4 4ebd 6fba 42be
00000220: 73e7 8bbe 6270 cbbc c29a 763c 3148 593d
00000230: 94ad 00be fd0f b13c 2dba 213d d1c2 7c3d
00000240: c3c0 563d d330 27be 0b59 bcbd 7dde 513c
00000250: 428c 763c e463 9e3d 1f0f 243e 750c 55bd
00000260: cfbb 3cbd cf0f 563d 584d 8fbd 9900 123d
00000270: 089a fa3c f9a2 89bd 1fda f13c 6c11 2c3b
00000280: 3abf 81bd 01dc 1b3d 5577 8b3d f361 b83b
00000290: af71 ccbc 145a a63d a533 853d 14eb 82bc
000002a0: 8cc1 0dbd 22f1 d43c 83f5 bebd d670 2fbc
000002b0: d1bf 8abc 78d7 9f3d d280 7f3d 5d0c 3ebc
000002c0: 6621 de3c f0f1 11be e9e3 493d 3d16 113d
000002d0: 3a49 5bbd 8c22 e93c 39f7 323d 4abb 2a3c
000002e0: d701 c83d 6021 8abc cb57 5f3d beb9 eebd
000002f0: 164e 103d 91f9 413e 6589 373d a4dc 28bc
00000300: 3fbe 6d3d e5f6 f7bd af45 5cbd 067f f83d
00000310: f82f 583c 0efd 80bd de66 c2bd 2265 fd3d
00000320: 7cb0 603d a1f7 793d 4b05 923d 9b47 90bc
00000330: f715 9a3d 6b36 cc3c 5668 d13d 9760 193c
00000340: 2f00 25be bfaf 3cbd 0f4c e13c eadd babd
00000350: 9aa4 4f3d 086a 57bd fec9 97bd 232b 29bd
00000360: 07df 443c 6c45 9b3d aee3 08bd 3d94 93be
00000370: c647 46bd 07d7 4dbd dc80 5fbe 1b8d 3bbc
00000380: 4277 963d 0ad7 c53d d2f8 3d3e 4b54 4b3b
00000390: 5ed7 9b3e c5bb bdbe 1d77 6bbb 889a ef39
000003a0: d334 a73c 4eb6 86bd 139b 813e 05a9 c2bd
000003b0: 69ff ae3d 1a25 133e c7c8 273e e8e0 cfbd
000003c0: 92b3 823d 0775 073e b32b 7abd 7caa 73be
000003d0: 029d 92bd e519 4d3e 1f64 b93d e98e 03bd
000003e0: eae5 3bbb c7d5 863c ddae 34bb 5c96 3c3d
000003f0: bc10 923e aa5f 8b3c 6130 37be 5290 03bd
0.12662058 0.099166416 -0.02840113 0.07272465 -0.012154401 0.019038621 -0.17516817 -0.03056143
-0.023744706 -0.045246795 0.042101424 -0.053786404 -0.101472095 -0.04622161 -0.062096264 -0.007026962
-0.072016776 -0.11244568 -0.07821047 -0.07420445 -0.045236945 -0.078177676 -0.05930363 0.06603804
0.07981892 0.09829185 0.06371347 0.019698966 0.03963914 -0.07079714 -0.12456234 -0.068693474
0.009416121 0.049007155 0.0144515475 0.020928731 0.062850356 0.06313172 -0.03499269 0.07239969
0.046740662 0.049046524 -0.11705127 -0.08498503 0.0044466313 -0.028091358 -0.022651348 0.004592963
0.098233394 -0.03913454 -0.1679998 -0.048424285 0.04770882 0.055775672 0.055863906 -0.025143577
0.08946135 -0.012192044 0.033302933 0.058951985 0.0025774806 -0.041822746 0.100908205 -0.06640219
-0.09313695 0.03113432 0.08049676 -0.017638978 0.041281264 -0.024884786 0.143294 0.029949073
-0.0060302513 0.016592596 0.050890792 -0.0075894 0.01211082 -0.054300997 -0.044145055 0.056365974
-0.049526952 -0.08772189 0.00059256214 -0.041706145 0.11330801 0.019393168 0.06630057 -0.120753475
-0.057166364 -0.018559843 -0.097719036 -0.038865875 -0.10382796 -0.037923753 -0.032541264 0.1064099
0.021856239 -0.028417177 0.021859253 -0.0868149 -0.054707263 0.16750051 -0.123595096 -0.020585448
-0.037651792 0.105065905 -0.065871865 0.071510196 -0.11792009 0.0077336715 0.09506299 -0.027014412
0.04072042 -0.078420736 0.01417613 -0.116336875 0.06370227 -0.07821512 -0.05239878 0.02147437
0.1557666 0.052149598 -0.14899534 0.04194445 -0.02552638 -0.014059738 -0.08971031 0.089696914
-0.12130165 0.087650456 0.008671976 -0.04771024 0.052820545 0.03705537 -0.05051113 -0.19016431
-0.2732502 -0.024833862 0.015051546 0.053047363 -0.12566215 0.02161407 0.03948419 0.06170923
0.052429926 -0.16327219 -0.09196671 0.012809393 0.0150480885 0.077338964 0.16021393 -0.052013833
-0.046077546 0.05226117 -0.06997174 0.0356451 0.030591026 -0.06720538 0.029522954 0.0026255501
-0.06335302 0.03805161 0.0680987 0.005626911 -0.024956552 0.0812265 0.06503991 -0.015981235
-0.03460841 0.025993887 -0.093241714 -0.0107080545 -0.016937168 0.07804769 0.062378712 -0.011599627
0.027115535 -0.14252448 0.049289618 0.0354216 -0.05353663 0.028458856 0.0436928 0.01042063
0.09765976 -0.016861618 0.054527085 -0.11656521 0.03523072 0.18942858 0.044808764 -0.010306511
0.05804276 -0.12107638 -0.053777393 0.12133603 0.01319503 -0.06298266 -0.094922766 0.12372805
0.05485581 0.061027173 0.07129916 -0.01761227 0.07523721 0.024928292 0.102249786 0.009361408
-0.16113351 -0.046066042 0.027502088 -0.09124358 0.050694086 -0.052591354 -0.07411574 -0.041300904
0.0120160645 0.075816005 -0.033420257 -0.28824034 -0.048408292 -0.050253894 -0.218265 -0.011447216
0.073469654 0.09660156 0.18551949 0.0031025584 0.3043775 -0.3705732 -0.0035929151 0.00045700767
0.02041093 -0.065777406 0.25313625 -0.09504894 0.08544809 0.14369622 0.16385184 -0.10150319
0.063819066 0.13228236 -0.06107683 -0.23795503 -0.07158853 0.20029409 0.090523 -0.03211871
-0.0028670975 0.016459359 -0.0027570047 0.04604183 0.28528392 0.01701339 -0.17889549 -0.032120056

tfm.layers.0.attention.value.layer.bias f4 [96]
00000000: 4854 58bc 7122 57bc dc33 003c 6394 f73c
00000010: 8f86 d5bc 9b79 8cbc 0948 8ebc 836b c23c
00000020: fb46 13bc 7ac6 a5bc 76e3 21bd d398 b9bc
00000030: 8506 3ebd 7cf4 003d 8e7c 033c baba 403d
00000040: 5ed9 96b6 097c 113c 6b02 d7bb 8648 33bc
00000050: 4795 2fbb df57 5c3c 789e e7bc bbad d63c
00000060: 5f0b 10ba 930b fb3c b53f 37bc 7ae6 9fbc
00000070: 3673 b83c 360a 423c fb5b 1e3c 2f02 883c
00000080: 1189 4c3b 00d1 d7bc 6275 49bb 3d49 12bc
00000090: 2dd8 88bb aa7e 733c 3c70 0bbc ce58 573b
000000a0: 5b3d 323c d11c 1a3d b637 a43c a4bf cb3c
000000b0: b13d 3abd eb1c 0b39 3a96 2f3d 88a9 e43c
000000c0: 9ade a0ba 2b39 1a3c 9b3c 6d3d e54d 653c
000000d0: 3683 433c 94a4 063d 3afd a83c d32c f8bc
000000e0: 58b2 283c cf10 ffbc 552d 0c3d b6ce 703c
000000f0: 1733 913c ed58 873c c28b 12bb 1a08 12bc
00000100: 0f62 ffbc 151b 3bbd 53e6 07bc 3c00 753c
00000110: 540e 79bb 84ed 5b3c ee34 6f3a e387 a43b
00000120: 5a12 a2bc 2dd1 ed3c 3b62 82bc de87 cbbb
00000130: 1992 d4bc b451 9bbb 6bd2 233d e924 3f3c
00000140: e314 a93b c1c0 683d 2ee7 a33d 89af 09bd
00000150: abcb 69bd 5ee4 c83b 11af 89bc b7fd 6d3d
00000160: dac0 cdbb e276 a23c 9181 ba3c 86e2 783b
00000170: a628 b43c 5b57 d2bc 5abc 46b9 89b2 4d3c
-0.013203688 -0.01313077 0.007824864 0.030222123 -0.02606514 -0.01714783 -0.017368333 0.023732906
-0.008989091 -0.020236243 -0.039523564 -0.02265588 -0.046392936 0.03148316 0.008025302 0.047053076
-4.4956532e-06 0.00887967 -0.0065615675 -0.010942584 -0.0026791857 0.0134486845 -0.028273806 0.026205888
-0.00054948585 0.030645167 -0.0111846225 -0.01951908 0.022515874 0.011843255 0.009665485 0.016602604
0.0031209628 -0.026344776 -0.0030740132 -0.008928594 -0.004176161 0.014861742 -0.0085106455 0.0032859328
0.010878886 0.037625138 0.020046096 0.024871655 -0.04546899 0.00013266846 0.042867877 0.02791287
-0.0012273372 0.009413044 0.057919126 0.013995622 0.011933139 0.032871798 0.02062856 -0.030294811
0.010296427 -0.031135945 0.03422292 0.014697721 0.017724557 0.016521895 -0.0022361134 -0.008913064
-0.031174688 -0.045680124 -0.00829466 0.014953669 -0.0038002925 0.013423327 0.00091250136 0.005021082
-0.019784141 0.029030407 -0.01591598 -0.006211265 -0.025948571 -0.0047399644 0.039995592 0.011666515
0.0051599606 0.05682445 0.080030784 -0.03361467 -0.057079 0.006130739 -0.016807111 0.05810329
-0.006279093 0.019832078 0.02276686 0.0037976815 0.021992039 -0.02567642 -0.00018952918 0.012554773

tfm.layers.0.attention_residual.linear_layer.layer.weight f4 [96, 96]
00000000: d39f 73bc e4dd 303e b870 e6bc ab46 833d
00000010: 7074 45be 69b9 3b3e e6fb 05be d5d1 f7bd
00000020: 983b 08bd 3c42 1d3e fbf9 3f3e ca52 833d
00000030: ffb5 09be 0b6d d83d c5d9 fc3c dbe6 60be
00000040: 1604 4e3d 5a6b 233d 3063 043e cf57 713b
00000050: 705a 66bd 0e5e 6fbc 5ac0 d33c eb80 9b3d
00000060: a711 f43c 6e72 32be 9a4f 40bd fdd9 0ebc
00000070: 4bbf b0bd 79f0 1dbe 47ee 88bc e6c1 18be
00000080: 4e35 2d3d 3432 a23d ba4c 20bc 93c6 14bd
00000090: e5a6 3abd 65a0 9f3d 9c03 a93d 9ad9 96bd
000000a0: 4e4c 143e 10fd ffbd 5155 17be 0e2e 04be
000000b0: 8a43 94bd b0d4 6cbd b2bd 2c3c 3a60 b3bc
000000c0: ff2f b63d 5f36 fd3b 9044 f0bd 6430 243e
000000d0: 05e3 343d 4e3d d03c dbd4 7b3d 8f6e 27bd
000000e0: a838 d8bb 14b8 d13b 01b1 9bbc 5b41 293e
000000f0: a895 8e3d 7388 96bd 046d 003e 3c97 003d
00000100: 04ac c83d 5f42 c4bd fbda bc3d 2cec 083c
00000110: 9551 8abe 8575 3c3d 26d2 32bc 0be7 cdbd
00000120: 7897 d6bd b964 f4bc d80f 223d cf1f 18bd
00000130: f5b2 233d d13c 973c aa01 46bd 6f3c 25be
00000140: c467 183d e3fe e4bd 618c a7bd 66d2 cfbc
00000150: 2a85 43be 5540 b9bd 959a 9bbd 5894 4e3d
00000160: fbe3 d4bc ea0d 01be 7dee 103e e9c8 c5bd
00000170: 012c 6a3d f19d f93c 7657 213c 6755 7cbd
00000180: 4316 2d3d f9a2 ebbd 0b61 623d cd16 2f3d
00000190: 7333 8a3c 5a81 673c 33b6 813c 74a7 73bd
000001a0: 42e1 88bd 3101 e73d 5d49 8abd 8f4d efbd
000001b0: a784 c2bd c886 f13d 6d1e a23d 1be1 1c3c
000001c0: fda8 14bd 8603 a93c ce85 86bd 23ce 053c
000001d0: d964 eabb 90dc cb3d 860d 8e3d c34d d23d
000001e0: 06c7 31be 347a a73d ccb5 08bd 2c41 61bc
000001f0: 0afd 5abd 1050 8b3d e7a8 153d b9ef d4bc
00000200: 7861 a9bc 2c22 adbd 5160 f63c 794c cebc
00000210: aa4c 3f3b b865 723c de9f 923c 12ef 5a3c
00000220: c86f 333e c2ae 8a3d 94d7 de3d 6458 51be
00000230: 9afe b1bd 031a 4d3c 88a3 163d bcf8 efbc
00000240: 2e08 6bbd 39a2 3a3d 7fd6 9e3c 60fb 403d
00000250: cbf1 b9bd 838e d13d 073c 8bbd 31aa 65bd
00000260: 91a8 763d 842b a63d 332b b63c eb86 023e
00000270: 6c93 823c 8b59 673d 1345 c73d f642 a3bd
00000280: 104b 00be b5ef 863c ba94 c3bc a168 2e3e
00000290: 7c2b 69bd 5740 d33d 5eb9 183d fd56 e6bc
000002a0: bff2 243d 3aca 5a3d cb8e 953d 2564 3dbd
000002b0: c9dc 29bc e27d aa3c 916d 3c3d f95f f53d
000002c0: b3f1 2fbb e0cd 5ebc bc48 1a3e fc09 c5bd
000002d0: 4e03 0ebe 161e 55bd 12cf fdbc d7db 5c3e
000002e0: bff0 8abd ac6b 513e 3948 8b3d 843b 393e
000002f0: 5bb3 9e3c ba96 a4bd 5cec 49bd cc63 03be
00000300: 39b7 d03d 1842 fd3d 3f48 10be a89f c13d
00000310: 0887 3e3d a814 3b3d 42c6 5cbd 72b6 99bd
00000320: 91ea ac3d fe20 d9bd 595e 27bd 5136 25bd
00000330: 34c4 633d 9cdd 80bd 98cb 5f3d 7d5a a1bd
00000340: 8091 a93d d704 363d 2f87 08bd 01b4 13be
00000350: 10fe 93bd b60d dbbd 5b7b 04be c56e ccbc
00000360: 8eeb 8d3d caa8 9cbd 74c4 bcbd 7c11 3cbe
00000370: 4aff cc3d 62a6 debd a8e6 8a3d fc5a 7ebc
00000380: 5b70 783d 52b8 febb d6f6 d5bd 6d81 65bd
00000390: 40f0 033e 9c66 063d 6487 1dbc ccbc 24be
000003a0: 40a6 cf3d 0c37 44bd 2bfa c5bc 40bf d8bd
000003b0: 6cca 86bd a5aa 1ebd 20a2 6ebd e049 cdbd
000003c0: 58f0 ad3d fd36 01be 6126 8bbd f371 aa3c
000003d0: 4bc1 073e 2ebb 6d3d 3224 9ebd 2ab7 17be
000003e0: e0ef 9ebd be71 373e aa51 b03d 0c57 97bd
000003f0: 73ae f7bc ac30 c33d c7c3 bd3c b654 e7bd
-0.014869648 0.17272145 -0.02812992 0.06409963 -0.19282699 0.18332447 -0.13084373 -0.12100569
-0.033259958 0.15357298 0.18747704 0.06412275 -0.13448332 0.10567673 0.03086556 -0.21963064
0.050296865 0.0398973 0.12928462 0.003682602 -0.05623859 -0.014609827 0.025848556 0.075929485
0.029793574 -0.17426464 -0.046950914 -0.008718965 -0.08630236 -0.15423764 -0.016715182 -0.14917716
0.042287163 0.07919732 -0.009783918 -0.036322188 -0.04556932 0.07794265 0.082526416 -0.07365723
0.14482233 -0.1249944 -0.1477864 -0.12908193 -0.072394446 -0.057820022 0.010543274 -0.02189647
0.08895873 0.007727429 -0.11731827 0.16034085 0.044161815 0.025419857 0.06148229 -0.04087692
-0.006598551 0.0064001177 -0.0190053 0.16528837 0.069621384 -0.073502444 0.12541586 0.03139423
0.097984344 -0.09582972 0.09221455 0.008357089 -0.27015367 0.046010513 -0.010914361 -0.100538336
-0.10478109 -0.029833185 0.03956589 -0.03713971 0.03996559 0.018461617 -0.04834143 -0.16136335
0.037208334 -0.11181428 -0.08181072 -0.02536888 -0.19093767 -0.090454735 -0.075978436 0.05043444
-0.025987616 -0.12602964 0.14153476 -0.09657461 0.05717087 0.03047082 0.0098475125 -0.061604884
0.04225756 -0.11505694 0.05526833 0.042746354 0.016870236 0.014129961 0.01583395 -0.059485868
-0.066835895 0.11279524 -0.06752274 -0.11684715 -0.09497958 0.117932856 0.079159595 0.009575154
-0.036293972 0.020631563 -0.0656849 0.008166823 -0.0071531353 0.09954178 0.06936173 0.10268738
-0.17361078 0.08177605 -0.0333765 -0.013748448 -0.053463973 0.0680238 0.03653803 -0.025993215
-0.02067636 -0.084537834 0.030075224 -0.02518295 0.0029189982 0.014794759 0.017898496 0.013362663
0.1752311 0.06771614 0.10880962 -0.20443875 -0.086911395 0.012518409 0.03677705 -0.02929341
-0.057380848 0.045564864 0.01938939 0.04711473 -0.090793215 0.1023226 -0.06798559 -0.05607051
0.06021935 0.08113769 0.022237396 0.1274678 0.015939437 0.05648188 0.09729972 -0.07971756
-0.12528634 0.016471723 -0.02387463 0.170321 -0.056926236 0.10315006 0.037286155 -0.028117651
0.040270563 0.053415515 0.07302626 -0.046238083 -0.010367581 0.020811979 0.04600293 0.11981196
-0.0026846945 -0.013598889 0.15066808 -0.09621045 -0.13868448 -0.052030645 -0.030982528 0.21568237
-0.067842 0.2045123 0.06800885 0.1808911 0.019372633 -0.08036561 -0.049297675 -0.12831038
0.10191197 0.12366122 -0.1409006 0.0945428 0.046515495 0.045673996 -0.05390001 -0.07505502
0.084431775 -0.10601996 -0.04086146 -0.040335003 0.055607036 -0.06292269 0.05463752 -0.078785874
0.08279705 0.04443821 -0.033332046 -0.14424135 -0.07226193 -0.106959745 -0.12937681 -0.024955163
0.06929694 -0.076493815 -0.09217158 -0.18366045 0.1000963 -0.10871579 0.067822754 -0.015524622
0.060654026 -0.0077734375 -0.10447471 -0.056031633 0.12884617 0.0328127 -0.009614799 -0.16087645
0.101391315 -0.04790406 -0.024167141 -0.10583353 -0.06581578 -0.038736958 -0.058260083 -0.10023856
0.084931076 -0.12618633 -0.067944296 0.020806288 0.13257329 0.058039837 -0.077217475 -0.14815965
-0.07760596 0.17914483 0.08609326 -0.0738965 -0.030234551 0.09530768 0.023164643 -0.11295454
