models/wmg_pathfinding.pth (torch_old, 542459 bytes, 77 tensors)

core_embedding_layer.layer.weight f4 [72, 15]
0	0xbd2b15c7	-0.041768815
1	0xbceb8eae	-0.028754558
2	0x3cd8e562	0.026476566
3	0x3bcf5134	0.006326819
4	0x3da42b7c	0.080161065
5	0xbd91bed7	-0.07116478
6	0xbd5ebae1	-0.05437744
7	0xbca0b2f4	-0.019616581
8	0x3d5005aa	0.05078665
9	0x3cd08f2c	0.025458895
10	0x3cbae801	0.022815706
11	0x3cec9566	0.028879832
12	0xbd189ffb	-0.037261944
13	0xbd7fc64d	-0.062444974
14	0xbc2143ce	-0.009842826
15	0x3e370df7	0.17876421
16	0xbc547779	-0.012967938
17	0xbe696689	-0.2279302
18	0xbe0f2b1e	-0.13981292
19	0x3db89395	0.09012524
20	0xbe134104	-0.1438027
21	0x3e41970f	0.1890528
22	0xbe6f3bd8	-0.23362672
23	0x3d81033e	0.062994465
24	0x3e67d579	0.22640027
25	0x3e01ed30	0.12688136
26	0xbd83aaca	-0.0642906
27	0x3e07ee40	0.13274479
28	0xbdfc4723	-0.12318256
29	0x3edfab43	0.4368535
30	0x3e5f73cc	0.21821517
31	0xbe2e93cf	-0.17048572
32	0xbf3ffdff	-0.7499694
33	0xbdf20db2	-0.118190184
34	0x3e9e60db	0.3093327
35	0xbda196a0	-0.078900576
36	0xbd03410f	-0.032044467
37	0xbe70ad46	-0.23503599
38	0x3e538a97	0.20658337
39	0x3f4cf446	0.8006023
40	0x3e0e06fa	0.13869849
41	0xbe82ec8e	-0.25571102
42	0x3d6d01ee	0.05786317
43	0x3d879218	0.06619662
44	0xbd9883b8	-0.07446998
45	0x3d4ed3e9	0.050495062
46	0x3c66928d	0.014073026
47	0xbad904f5	-0.0016557263
48	0x3c93e766	0.018054675
49	0x3d90702e	0.070526466
50	0x3d63b282	0.05559016
51	0x3d157100	0.03648472
52	0x3c88cda9	0.016699629
53	0x3b1ec977	0.002422897
54	0xbd78fd9d	-0.06078874
55	0xbb7f55ae	-0.0038960981
56	0x3cb099bb	0.02155768
57	0x3d1e36bd	0.03862642
58	0xbbc2c22b	-0.005943557
59	0xbc40b825	-0.0117626535
60	0xbe9b8ef9	-0.30382517
61	0x3e53dbdb	0.20689337
62	0xbefce7c6	-0.4939558
63	0xbea7035a	-0.32619745
64	0xbe012398	-0.12611234
65	0xbe9bb03a	-0.30407888
66	0x3d2148fa	0.039376236
67	0x3e8c628e	0.2741894
68	0xbdb663ae	-0.08905731
69	0x3ef7dbc8	0.48409867
70	0x3e9921e4	0.2990867
71	0x3e187c76	0.14891228
72	0x3e901c37	0.28146526
73	0xbcc74511	-0.024324926
74	0xbce06b56	-0.027394932
75	0xbc9eceb4	-0.019385673
76	0x3c8b1e41	0.0169822
77	0xbd23e7f5	-0.040016133
78	0x3bc1e770	0.005917482
79	0xbd42909d	-0.047501195
80	0x3cf8a51b	0.030352166
81	0xbdbcbbaf	-0.09215485
82	0xbca7266f	-0.020404069
83	0x3cb6d630	0.02231893
84	0x3c8139c6	0.015774619
85	0x3d4ea47a	0.050449826
86	0xbc17354b	-0.009229015
87	0x3c97839d	0.018495375
88	0xbd7ca991	-0.06168515
89	0x3c3641be	0.011124073
90	0x3e800bce	0.25009006
91	0x3e3e06cf	0.18557285
92	0xbdd02736	-0.10163729
93	0x3d9b88fb	0.07594486
94	0x3e591dd7	0.21202789
95	0xbe45d6a0	-0.19320154
96	0xbd010c93	-0.031506132
97	0xbe9ea0fd	-0.309822
98	0xbda5724d	-0.08078442
99	0x3dd5041f	0.10401177
100	0xbce3c0bf	-0.02780187
101	0xbda86eec	-0.08224282
102	0x3e1d3014	0.15350372
103	0x3d1be651	0.038061444
104	0x3e80b493	0.25137767
105	0xbb8b7c0f	-0.0042567323
106	0xbd417248	-0.047228128
107	0xbd265ae4	-0.040614024
108	0x3d302dda	0.043012477
109	0xbb897c84	-0.0041957516
110	0x3cd7e59d	0.026354605
111	0xbd00d194	-0.03144987
112	0x3ca16fc2	0.01970661
113	0x3d538d6d	0.051648546
114	0xbd094b85	-0.033519287
115	0x3c91a16d	0.01777717
116	0xbc73a4f2	-0.014870869
117	0x3d14a689	0.036291633
118	0x3c74795e	0.014921514
119	0x3c4a1a20	0.01233533
120	0x3d3f133a	0.046649195
121	0xbd20fb41	-0.039302114
122	0x3c4ad0de	0.012378899
123	0xbbe445cf	-0.0069663296
124	0xbd7bcdb9	-0.06147549
125	0xbd449a43	-0.047998678
126	0xbc86f39d	-0.016473586
127	0xbd6e9663	-0.05824889
128	0x3b6101b4	0.003433329
129	0x3cb9af46	0.022666585
130	0x3dfddc1d	0.12395499
131	0x3d04ec39	0.032451842
132	0x3d3ce371	0.046115343
133	0x3d81c39b	0.06336137
134	0x3d9c59b7	0.07634299
135	0x3d9b0dc7	0.07570987
136	0x3dc680f9	0.09692568
137	0xbcc6386f	-0.024196832
138	0xbd7a91f7	-0.06117436
139	0xbd0ae615	-0.03391083
140	0x3dba27d5	0.090896286
141	0x3d78b9c3	0.06072403
142	0xbdf6e987	-0.120562606
143	0xbd4583df	-0.048221465
144	0xbb1d2dff	-0.0023983715
145	0x3db48dec	0.08816132
146	0x3d4cbc90	0.049984515
147	0xbce8bb67	-0.028409673
148	0xbd901f5c	-0.07037231
149	0xbe165f80	-0.14684868
150	0xbdc5f2ac	-0.096654266
151	0xbe931ff0	-0.28735304
152	0xbea7fa3d	-0.32808104
153	0x3d90c2d5	0.07068411
154	0xbd8d3fc9	-0.06896932
155	0xbe370ffd	-0.17877193
156	0xbc9d3669	-0.019190984
157	0xbb9d062b	-0.004791995
158	0x3e8ce673	0.2751957
159	0x3e96af93	0.29430827
160	0x3d7573c3	0.059924852
161	0x3dc67652	0.096905366
162	0x3e312404	0.17298895
163	0xbcd33790	-0.02578333
164	0xbdb53703	-0.08848383
165	0xbd695a08	-0.056970626
166	0x3e10757e	0.1410732
167	0x3d3ac338	0.04559633
168	0x3d796cdd	0.060894836
169	0x3dd1d52e	0.10245739
170	0xbda230d4	-0.079194695
171	0xbe0f0257	-0.13965736
172	0x3dbfd813	0.09367385
173	0xbda70d08	-0.081567824
174	0xbd363446	-0.044483446
175	0xbdcb1f65	-0.099180974
176	0xbdf9fd18	-0.12206477
177	0x3dbfb0c0	0.09359884
178	0x3bbfb4c5	0.005850407
179	0x3e35c495	0.17750771
180	0xbe244bff	-0.16044615
181	0x3ee0c019	0.4389656
182	0xbeb4bb06	-0.35298938
183	0xbed65bf1	-0.4186702
184	0x3ec86ae7	0.3914406
185	0xbd61bdad	-0.05511253
186	0xbd1abe06	-0.037778877
187	0x3deb4360	0.1148746
188	0xbecfb016	-0.4056403
189	0x3eb313bf	0.34976003
190	0x3ee9668b	0.45586047
191	0xbea57052	-0.32312256
192	0x3d85f0e5	0.065400876
193	0x3dfb6e79	0.1227693
194	0x3e47abc0	0.19499111
195	0x3c0004bd	0.00781363
196	0x3d233e17	0.039854135
197	0xbc090cd8	-0.008364879
198	0x3d6cca45	0.057810087
199	0xbca01578	-0.019541487
200	0x3d8eafb2	0.06967105
201	0xbcc00f7a	-0.02344488
202	0x3cd1b41d	0.02559858
203	0x3d86a94e	0.06575261
204	0xbc6800a0	-0.014160305
205	0x3d6c96da	0.05776105
206	0x3c466a7c	0.012110349
207	0x3d69c043	0.05706812
208	0x3af3af8e	0.0018591748
209	0xbba6569e	-0.0050762435
210	0x3ea2a2f0	0.31764936
211	0x3ed21c2f	0.41037127
212	0x3ef8f0e8	0.48621297
213	0xbe8666fb	-0.26250443
214	0xbe1ecfad	-0.1550891
215	0x3eace8ff	0.33771512
216	0x3dfdf54f	0.124003045
217	0xbe9a9349	-0.30190495
218	0xbec93f26	-0.3930599
219	0xbef9553c	-0.4869784
220	0x3e9f7ed6	0.31151456
221	0x3e05ee96	0.13079295
222	0xbe9d1279	-0.30678156
223	0xbdbce94e	-0.09224187
224	0xbd401a68	-0.046900183
225	0x3e57b7d1	0.21066214
226	0x3f015940	0.5052681
227	0x3d21f1b7	0.039537158
228	0x3dc02d7c	0.093836755
229	0xbe9b3fe9	-0.30322197
230	0x3eb227a1	0.3479586
231	0xbefdb791	-0.49554113
232	0xbe503acd	-0.2033493
233	0xbeeb3c52	-0.45944458
234	0xbd11e295	-0.035616476
235	0xbd9fce10	-0.07802975
236	0x3e9e625e	0.30934423
237	0xbea9fd17	-0.33200905
238	0x3f1390e5	0.57642967
239	0x3df8bce6	0.121454045
240	0xbd746a3c	-0.059671625
241	0xbd6b6f65	-0.05747928
242	0xbe8256c0	-0.2545681
243	0x3f2a150f	0.6643838
244	0x3d80959b	0.06278535
245	0xbe254c47	-0.16142379
246	0xbe151635	-0.14559253
247	0x3bb61fe6	0.005558002
248	0x3def8e5b	0.11697074
249	0x3e944406	0.28958148
250	0xbf2320c7	-0.6372189
251	0xbd0f79f4	-0.035028413
252	0x3e4b857e	0.19875142
253	0x3e10fe50	0.14159513
254	0xbe1410d8	-0.1445955
255	0xbc8e29b0	-0.017353863

core_embedding_layer.layer.bias f4 [72]
0	0xbc8e5eba	-0.017379154
1	0xbd995cb6	-0.07488386
2	0xbe04c36f	-0.12965177
3	0x3c14e728	0.009088315
4	0x3d60b769	0.054862414
5	0xbc811ab5	-0.015759805
6	0xbe8145c4	-0.2524854
7	0x3d77d4e7	0.060505774
8	0xbdc874e7	-0.09787922
9	0xba9e67b1	-0.0012085346
10	0x3da54b71	0.0807103
11	0xbd64cbf3	-0.055858564
12	0xbd3fa85b	-0.046791416
13	0x3c9226f2	0.017840836
14	0x3de5b80d	0.112167455
15	0xbd40133f	-0.046893355
16	0x3dcdfd30	0.10058057
17	0x3d95d090	0.07315171
18	0x3e81bf01	0.25341037
19	0xbc36da4a	-0.011160443
20	0xbec41d17	-0.38303444
21	0x3e16a17a	0.14710036
22	0x3e7ecf5b	0.24883787
23	0x3ddf1762	0.10893132
24	0x3e96e6b3	0.29472885
25	0xbe3fa7d8	-0.18716371
26	0x3ec76d35	0.38950506
27	0x3e2f744a	0.17134205
28	0x3c21f5d3	0.009885269
29	0x3e87ad53	0.26499423
30	0xbe16c9a4	-0.14725357
31	0x3d4c71a7	0.049913075
32	0xbe184d93	-0.14873342
33	0xbd855fee	-0.06512438
34	0xbe1a58e6	-0.15072975
35	0x3da7f920	0.08201814
36	0x3ddf7b30	0.10912168
37	0xbdc54e07	-0.09634023
38	0xbd14f0e5	-0.036362547
39	0xbdf28bb6	-0.11843054
40	0x3e35673c	0.17715162
41	0x3e381e14	0.17980224
42	0xbdb88614	-0.090099484
43	0xbdd54694	-0.10413852
44	0x3e5fbea4	0.21850067
45	0xbdb86a58	-0.090046585
46	0x3b080410	0.0020754375
47	0x3d8c9b27	0.068655305
48	0x3df6259b	0.120188914
49	0xbe2a5d7f	-0.16637228
50	0xbd8e6068	-0.06951982
51	0x3f050083	0.51953906
52	0x3e1ee3fb	0.15516655
53	0xbe46115e	-0.19342563
54	0x3e5760a3	0.21032958
55	0xbda5b76d	-0.08091626
56	0x3ca41eaf	0.020034162
57	0xbb4b0eae	-0.0030984092
58	0xbdaa1f07	-0.08306699
59	0x3e8c0ed5	0.27355066
60	0xbe1d4347	-0.15357696
61	0xbe42f56d	-0.19038935
62	0xbd3ac6eb	-0.04559986
63	0xbe3057bb	-0.17220967
64	0xbd96f995	-0.07371823
65	0xbe689769	-0.22714008
66	0xbbdfafa9	-0.0068263602
67	0xbcf820f6	-0.030289154
68	0xbca50da1	-0.0201481
69	0xbdc61212	-0.096714154
70	0x3bf5402b	0.007484456
71	0x3db2d3c3	0.087317966

memo_embedding_layer.layer.weight f4 [72, 144]
0	0x3b5a2c1f	0.0033290458
1	0x3cfd0d14	0.030890025
2	0x3d406d11	0.046979014
3	0xbdb20200	-0.08691788
4	0x3c9e316a	0.019310672
5	0x3c3977e5	0.011320089
6	0xbc2774e3	-0.010220739
7	0xbd7b9c8e	-0.0614286
8	0x3d1ef191	0.038804594
9	0xbd251ece	-0.04031258
10	0x3d5f4f59	0.05451903
11	0xbcc3f67c	-0.023921244
12	0xbd042310	-0.03226
13	0x3d000f57	0.03126463
14	0x3d9e6ca2	0.07735564
15	0x3aba94bf	0.0014235004
16	0xbdaa8c24	-0.08327511
17	0xbc329cbf	-0.010901629
18	0x3d9453a1	0.072425134
19	0xbcd96f42	-0.02654231
20	0xbd722915	-0.05912121
21	0x3d932275	0.071843065
22	0xbd68962f	-0.05678385
23	0xbd78226c	-0.060579702
24	0x3cd9cb88	0.02658631
25	0xbd588ef9	-0.052870724
26	0xbd983f6e	-0.07433973
27	0x3c5ef9b9	0.013609343
28	0xbbdd34fc	-0.006750701
29	0x3c03d800	0.008047104
30	0x3be2b8af	0.0069189887
31	0x3d9fdcf2	0.07805814
32	0x3ccf22a3	0.02528507
33	0x3e0b8242	0.13623908
34	0xbd3123d6	-0.043247066
35	0x3d9da276	0.076970026
36	0xbd7cf382	-0.061755665
37	0xbd179ee9	-0.037016783
38	0x3c9a0143	0.01879943
39	0x3da4e51f	0.08051514
40	0x3c61019a	0.013733292
41	0x3d428a0d	0.047494937
42	0xbdb193fb	-0.08670803
43	0xbca57231	-0.020196052
44	0x3d1c939d	0.038226712
45	0xbd430f31	-0.04762191
46	0x3c5363d6	0.012902221
47	0xbcb71939	-0.022350894
48	0xbd5cf639	-0.053945754
49	0x3cb7b012	0.022422824
50	0xbcbbb376	-0.022912722
51	0xbcf7e98b	-0.03026273
52	0x3d0752ae	0.033037834
53	0x3cc3892f	0.023869125
54	0xbd8dade2	-0.06917931
55	0xbb37ad55	-0.0028026898
56	0xbd622209	-0.05520824
57	0x3d31400a	0.043273963
58	0x3db25cde	0.08709119
59	0x3d904cbf	0.07045888
60	0x3d8ea01a	0.06964131
61	0x3d625a04	0.055261627
62	0xbdba7968	-0.09105188
63	0x3c845962	0.016155902
64	0x3d3d58de	0.04622733
65	0x3c503720	0.012708455
66	0xbd71ecff	-0.059063908
67	0xbcb3469c	-0.021884255
68	0x3d1a9a55	0.03774484
69	0xbcb4cdb7	-0.022070749
70	0xbdd925cd	-0.10602913
71	0x3d839afa	0.06426044
72	0xbd48b568	-0.049001127
73	0x3d52eafc	0.05149363
74	0xbd88ae89	-0.06673915
75	0xbe158c57	-0.14604317
76	0xbd5e518c	-0.054276988
77	0x3c5ab791	0.01334943
78	0x3dda09c9	0.106463976
79	0xbd144ccb	-0.036206048
80	0xbca0b8dc	-0.019619398
81	0xbd678c43	-0.05653025
82	0xbda26093	-0.07928576
83	0xbcb54ad1	-0.022130402
84	0x3d5fc0e8	0.05462733
85	0xbc2c84a9	-0.0105296755
86	0xbdd5d603	-0.1044121
87	0xbc80cade	-0.015721735
88	0x3c677c38	0.014128737
89	0x3d2c5e47	0.042082097
90	0x3d9d0597	0.07667082
91	0x3cedec3d	0.029043311
92	0xbc35123f	-0.0110517135
93	0x3995bc4d	0.0002855979
94	0x3c0ee9c3	0.008722725
95	0xbd306930	-0.043069065
96	0xbd53f2a1	-0.05174506
97	0x3df26a51	0.118366845
98	0x3b5f7d82	0.0034101908
99	0x3cd2b1ad	0.025719488
100	0x3d2a4ea3	0.0415789
101	0x3db7df70	0.08978164
102	0x3d5593aa	0.052142777
103	0x3d6910c7	0.056900766
104	0x3cc4518e	0.02396467
105	0xbbc23ee1	-0.005927906
106	0xbc7625b0	-0.015023634
107	0xbbffe064	-0.007808732
108	0x3cbfeca3	0.023428267
109	0x3d599767	0.053122904
110	0x3cf66632	0.030078027
111	0xbc3c9330	-0.011509702
112	0xbd71d825	-0.059044022
113	0xbd715b59	-0.058925007
114	0x3bc43fd0	0.0059890524
115	0xbd8f200d	-0.06988535
116	0x3cf38d79	0.029730545
117	0x3db1b239	0.086765714
118	0x3bfdde27	0.00774743
119	0xbbd1d604	-0.0064036865
120	0xbd109d42	-0.035306223
121	0x3d3c73c9	0.04600886
122	0x3d362227	0.044466164
123	0x3c876c60	0.01653117
124	0xbd7e7c53	-0.062130284
125	0x3d26b614	0.040700987
126	0xbd95f966	-0.073229596
127	0x3d118825	0.03553023
128	0xbc2394df	-0.009984224
129	0xbcd318d6	-0.025768679
130	0xbd05b4ef	-0.032643255
131	0xbdc69144	-0.09695676
132	0x3cf2ed5b	0.029654196
133	0xbd898173	-0.067141436
134	0xbd448862	-0.047981627
135	0xbcd39fb2	-0.025832985
136	0xbd555fd7	-0.052093353
137	0xbd8a1874	-0.06742945
138	0x3e54d005	0.20782478
139	0x3dcb27ab	0.099196754
140	0x3e6e8346	0.23292264
141	0xbd83cc5f	-0.06435465
142	0xbe44f1ee	-0.19232914
143	0xbd4d47ff	-0.05011749
144	0xbceef31d	-0.02916866
145	0xbd9727e1	-0.07380653
146	0x3d062a03	0.03275491
147	0xbdc6b261	-0.09701992
148	0xbe3f11b5	-0.18659098
149	0xbc1e557d	-0.009663937
150	0xbc6b26ae	-0.014352484
151	0x3d4bbc0a	0.049739875
152	0xbda17c44	-0.0788503
153	0x3d2704ee	0.040776186
154	0xbccd283e	-0.025043603
155	0x3e58760f	0.21138786
156	0x3e8a3c0b	0.26998934
157	0xbc9708ed	-0.018436873
158	0xbddf2d1a	-0.10897274
159	0x3a8b63dd	0.001063462
160	0x3d425813	0.047447275
161	0x3d59e9eb	0.053201597
162	0xbde7f33e	-0.11325692
163	0xbd1af465	-0.03783073
164	0x3d493d1e	0.04913055
165	0xbe2cf17c	-0.16888994
166	0x3cbc7c6c	0.023008548
167	0x3cfe5384	0.031045683
168	0x3d89c5ee	0.06727205
169	0xbd295db8	-0.041349143
170	0xbdacd7dd	-0.0843961
171	0xbdc7c4fd	-0.097543694
172	0xbccb9826	-0.024852823
173	0xbb895493	-0.0041909902
174	0xbc848dca	-0.016180892
175	0xbd9957d8	-0.07487458
176	0xbae7e026	-0.0017690703
177	0x3e1704c7	0.14747916
178	0xbd80ef6c	-0.06295666
179	0xbda7b15a	-0.08188124
180	0x3e0f3fd7	0.13989197
181	0x3d9a137f	0.0752325
182	0xbc188e50	-0.009311274
183	0xbdf7e44d	-0.12104092
184	0xbdc00939	-0.09376759
185	0x3d98c53b	0.07459494
186	0x3b85843e	0.0040746024
187	0x3e1eca2c	0.1550681
188	0x3c561f07	0.013068921
189	0xbe889ad3	-0.26680622
190	0xbd2e4a4a	-0.042551316
191	0xbb142e55	-0.0022610624
192	0xbe424abc	-0.18973821
193	0x3d18e7b1	0.037330333
194	0xbdacfbbc	-0.08446452
195	0x3c11a861	0.008890242
196	0xbd848b78	-0.06471914
197	0x3d563fa4	0.052306786
198	0xbdb13b48	-0.08653885
199	0xbd92b6d8	-0.07163781
200	0x3e16be03	0.14720921
201	0xbc2b5b98	-0.010458849
202	0xbd83eed1	-0.06442035
203	0xbd1f87e0	-0.03894794
204	0xbd1f3cf0	-0.038876474
205	0x3d20d2c8	0.039263517
206	0xba73c457	-0.0009298971
207	0x3cab53f4	0.020914055
208	0x3dd2b7d7	0.10288971
209	0x3cad2b80	0.021138906
210	0xbd241f1b	-0.040068727
211	0x3da33807	0.07969671
212	0xbd1de4a8	-0.03854814
213	0xbde0258d	-0.10944662
214	0x3d36c1ad	0.044618297
215	0xbc3d8fa6	-0.011569893
216	0x3e03370e	0.1281397
217	0xbcc0dedb	-0.023543766
218	0x3c80f3bc	0.015741222
219	0xbe742884	-0.2384358
220	0xbd56b46b	-0.052418154
221	0x3d4213d6	0.0473822
222	0x3d1259ec	0.035730287
223	0x3d742653	0.05960686
224	0x3bf8219e	0.007572367
225	0x3c31256e	0.010812147
226	0xbc4e55b3	-0.0125936745
227	0xbd606eef	-0.054793295
228	0xbbd28a98	-0.006425213
229	0xbaedc431	-0.0018140135
230	0x3ddbfd84	0.10741714
231	0xbc481ef2	-0.012214409
232	0x3d865e8f	0.06561004
233	0xbe100119	-0.14062919
234	0xbd9f90d9	-0.077912994
235	0xbe078a6a	-0.13236395
236	0xbd261b52	-0.0405534
237	0xbc951416	-0.018198054
238	0x3e22adaf	0.15886568
239	0x3d9356be	0.07194279
240	0xbdb64bb5	-0.08901159
241	0xbe44f828	-0.19235289
242	0xbc5fe1a0	-0.013664633
243	0x3bf72767	0.007542539
244	0xbc8e72cf	-0.01738873
245	0x3d9c36ab	0.076276146
246	0xbce99275	-0.028512219
247	0x3d16fe59	0.03686366
248	0xbe0fe6d4	-0.14052898
249	0x3cfacb9d	0.030614669
250	0x3e1ee687	0.15517627
251	0x3d9d3648	0.07676369
252	0x3e1f4cb6	0.15556607
253	0xbdb18d6f	-0.086695544
254	0x3d90796e	0.07054411
255	0x3d00a220	0.031404614

memo_embedding_layer.layer.bias f4 [72]
0	0x3d375542	0.044759043
1	0x3cca8b0a	0.024724502
2	0x3d4cdac5	0.050013322
3	0x3d408bcb	0.047008317
4	0x3bdcd1e3	0.0067388876
5	0x3d9b8532	0.07593764
6	0xbd3c02de	-0.045901172
7	0xbbf5c62c	-0.0075004306
8	0x383df345	4.5287674e-05
9	0x3df8547c	0.12125489
10	0x3dbcacce	0.092126474
11	0x3da98840	0.08277941
12	0xbdcd1d45	-0.10015348
13	0xbd5cf818	-0.05394754
14	0x3d0118a5	0.031517643
15	0x3c9f3eb3	0.019439077
16	0x3d417f37	0.047240462
17	0xbe0973ab	-0.1342303
18	0x3ce3770a	0.027766723
19	0x3d26b26b	0.040697496
20	0x3d78f8ba	0.06078408
21	0xbdc8c9ea	-0.09804137
22	0x3dedb0a8	0.1160596
23	0x3cba2adc	0.022725515
24	0x3bb129a1	0.005406574
25	0xbd754654	-0.059881523
26	0xbbc61a15	-0.0060455897
27	0xbd4fa347	-0.050692823
28	0xbdae8733	-0.08521881
29	0x3e89857b	0.2685965
30	0xbd360b54	-0.044444397
31	0xbdeb6a49	-0.11494882
32	0xbdbb639c	-0.09149858
33	0x3e5b02e0	0.21387815
34	0xbe23a13a	-0.15979472
35	0x3d59ae29	0.053144608
36	0x3d8568c9	0.06514127
37	0x3da2c084	0.07946876
38	0x3c282bf8	0.010264389
39	0x3c287b0e	0.010283245
40	0x3d6d11a9	0.05787817
41	0x3d94b74c	0.072615236
42	0xbca7ed56	-0.020498913
43	0xb9ab1a51	-0.0003263527
44	0xbd730388	-0.05932954
45	0xbab7f1a7	-0.001403381
46	0x3d53821f	0.051637765
47	0x3d04c2ea	0.032412447
48	0xbd20cea1	-0.039259557
49	0x3ce9e873	0.028553223
50	0x3c69565b	0.01424178
51	0xbdae442d	-0.08509097
52	0xbcd591e0	-0.026070535
53	0xbd4d8045	-0.050171155
54	0xbd8f7746	-0.070051715
55	0xbd9335f7	-0.07188027
56	0x3e076d09	0.13225187
57	0xbe2187d4	-0.1577447
58	0xbdef5281	-0.11685658
59	0xbc4f4f16	-0.012653133
60	0xbdafb400	-0.08579254
61	0xbd13b33d	-0.036059607
62	0x3c8c3c3e	0.01711857
63	0x3d25dbbe	0.040492766
64	0xbdc180db	-0.09448405
65	0xbdc0a611	-0.09406675
66	0xbcfec6ed	-0.031100715
67	0xbe17f69d	-0.14840169
68	0x3e2d1a30	0.16904521
69	0x3da6a0ab	0.08136114
70	0xbd9e2e39	-0.0772366
71	0xbcb2b6b6	-0.021815639

tfm.layers.0.attention.query.layer.weight f4 [72, 72]
0	0x3d02bde7	0.031919386
1	0xbcada7f7	-0.021198256
2	0xbdb90ebb	-0.09036013
3	0x3dd0f7c0	0.102035046
4	0x3e18ea88	0.14933217
5	0xbd4b136b	-0.049579065
6	0x3d8b60e0	0.06805587
7	0xbd3031b0	-0.043016136
8	0xbcd75519	-0.026285695
9	0x3c1e7b07	0.009672887
10	0x3a1150f9	0.0005543377
11	0xbcfae07d	-0.030624622
12	0x3e465af9	0.19370641
13	0x3d56cf8c	0.052444026
14	0x3d827d6a	0.06371577
15	0x3cdc40b8	0.026886329
16	0x3dc7669b	0.09736367
17	0x3d247578	0.04015109
18	0x3da63df3	0.081172846
19	0xbc5235b7	-0.012830189
20	0x3d931b82	0.07182981
21	0x3d3dfe46	0.046385072
22	0x3d8d30bf	0.06894063
23	0xbd8e2e16	-0.06942384
24	0x3e5d9c01	0.21641542
25	0xbe6419fa	-0.22275534
26	0x3d675e9f	0.056486722
27	0xbd79c95f	-0.060983058
28	0xbcc732ec	-0.024316274
29	0xbc90abc5	-0.017660031
30	0xbd073630	-0.03301066
31	0x3d54d9be	0.051965468
32	0xbd8c559f	-0.068522684
33	0x3d82d6be	0.06388615
34	0x3c313536	0.010815909
35	0xbd44bfef	-0.048034605
36	0x3db8203b	0.089905225
37	0xbca7084c	-0.020389698
38	0x3dc1ab33	0.09456482
39	0xbe08ecc2	-0.13371566
40	0xbd3c581f	-0.045982476
41	0xbe12af47	-0.14324676
42	0x3e09a0be	0.13440225
43	0xbe016b93	-0.12638693
44	0x3ce18713	0.027530229
45	0xbd32d1f1	-0.043657247
46	0x3dc95772	0.09831132
47	0xbdb2bd8b	-0.08727559
48	0x3e1c5824	0.15267998
49	0xbd6d44d7	-0.05792698
50	0x3d59125e	0.052996032
51	0xbe3d0c8c	-0.18461818
52	0xbc8a3dad	-0.016875112
53	0xbe56955d	-0.20955415
54	0x3d01ca55	0.0316871
55	0xbb862876	-0.004094179
56	0x3d913f1d	0.07092116
57	0xbde97cdb	-0.114007674
58	0xbd2b3e86	-0.041807674
59	0x3d93461c	0.07191107
60	0xbd8781e8	-0.066165745
61	0xbe18e4db	-0.14931051
62	0xbda34441	-0.07972003
63	0x3e215487	0.15754901
64	0xbdc99de5	-0.09844569
65	0xbd761449	-0.06007794
66	0x3e344736	0.1760529
67	0x3d6d8422	0.05798734
68	0x3dddfd85	0.10839371
69	0xbd45a7ec	-0.048255846
70	0x3d726ef6	0.05918785
71	0xbe0f16ec	-0.13973588
72	0xbdee3522	-0.11631228
73	0x3e1c4ed9	0.15264453
74	0xbc9630d1	-0.018333824
75	0xbd16c3ef	-0.03680795
76	0x3cbe6118	0.023239657
77	0x3decc0af	0.11560189
78	0x3c38a279	0.011269205
79	0x3b58e114	0.0033093141
80	0x3d0e7516	0.03477963
81	0xbe5568eb	-0.20840804
82	0x3d640fec	0.055679247
83	0xbd46ce03	-0.04853631
84	0x3dd68e4a	0.10476358
85	0xbd461dc6	-0.048368238
86	0xbe0cbdff	-0.13744353
87	0x3dc10706	0.09425168
88	0xbcd04b8c	-0.025426649
89	0xbdfaa68e	-0.12238799
90	0xbe5a2084	-0.21301466
91	0x3d757469	0.05992547
92	0x3d59b3ed	0.053150106
93	0xbde66a30	-0.112507224
94	0xbe580eb2	-0.21099356
95	0x3c41861f	0.011811762
96	0xbdf138b1	-0.11778391
97	0x3dddc8f2	0.10829343
98	0xbde52512	-0.11188711
99	0xbdaca5c7	-0.08430057
100	0xbda14328	-0.07874137
101	0xbd9739fd	-0.07384107
102	0x3b28089e	0.0025639902
103	0x3d905911	0.07048238
104	0x3e654eca	0.22393337
105	0xbd203fe0	-0.039123416
106	0x3dd23ca8	0.102654755
107	0x3d9400c7	0.07226711
108	0xbd5bd9db	-0.05367456
109	0x3e335af2	0.17515162
110	0x3d42a4bf	0.047520395
111	0xbe0608cd	-0.13089295
112	0x3d7ebce7	0.06219187
113	0x3dc7625a	0.09735556
114	0x3d9c5470	0.07633293
115	0x3db72428	0.08942443
116	0x3d395bf3	0.045253705
117	0x3d8e9b88	0.06963259
118	0xbd8f0f90	-0.0698539
119	0x3e2bc3ae	0.16773865
120	0x3dbc4f6e	0.091948375
121	0x3dae026a	0.08496554
122	0x3dbb87ad	0.091567375
123	0x3d228eda	0.039687015
124	0x3cdc25f7	0.026873572
125	0xbe1ef821	-0.15524341
126	0x3e41c95d	0.1892447
127	0x3e12ac3d	0.14323516
128	0xbe0e6396	-0.13905177
129	0x3d4094f0	0.047017038
130	0x3e1a1923	0.15048651
131	0xbd1f9ede	-0.038969867
132	0xbc9d1169	-0.01917334
133	0x3ca81b84	0.020520933
134	0x3e43956a	0.19099966
135	0x3dd80b0a	0.105489805
136	0xbc69a964	-0.014261577
137	0xbc87c6ba	-0.016574252
138	0x3d312748	0.043250352
139	0x3dfd2628	0.12360793
140	0xbe1c8d36	-0.15288243
141	0xbdee32e6	-0.11630802
142	0xbd40a9b8	-0.047036856
143	0x3d8c68a2	0.068558946
144	0x3c92170a	0.017833252
145	0x3d95bd4f	0.073114984
146	0x3de33c07	0.11095434
147	0x3d09cc0b	0.033641856
148	0x3d89f7cd	0.067367174
149	0xbd2b26a1	-0.041784886
150	0x3c1dd060	0.0096322
151	0x3b5e6a63	0.0033937923
152	0xbcb009a4	-0.021488972
153	0xbdbef40f	-0.09323894
154	0x3e4795e2	0.1949077
155	0xbd1d26fa	-0.03836725
156	0xbcc2fc62	-0.023801986
157	0x3cee5aaf	0.029095976
158	0xbd5aee4f	-0.053449925
159	0xbe1da862	-0.15396264
160	0x3e368803	0.17825322
161	0xbcb5d301	-0.022195341
162	0xbddcb77d	-0.10777185
163	0x3cbb2869	0.022846418
164	0xbd541e4e	-0.051786713
165	0x3cb51847	0.022106303
166	0x3e035f9d	0.12829442
167	0xbd88bd1b	-0.06676694
168	0x3cb73701	0.022365095
169	0x3d8931d7	0.06698959
170	0x3db99fd5	0.09063689
171	0xbda1dce9	-0.079034634
172	0x3d20432f	0.03912657
173	0xbd019f36	-0.031645976
174	0xbe662a0c	-0.22476977
175	0xbc8abebf	-0.016936658
176	0x3dc05ffc	0.093933076
177	0xbdf44d45	-0.119288005
178	0xbd939acd	-0.0720726
179	0xbdbaa4e4	-0.09113482
180	0xbd2e6b9b	-0.04258309
181	0x3cd25923	0.02567727
182	0xbe2c9cae	-0.16856644
183	0x3d9a9c1a	0.07549305
184	0xbc9bf5f4	-0.019038178
185	0xbe088786	-0.13332948
186	0x3d8da3f5	0.06916038
187	0x3e1ffdd6	0.15624174
188	0xbd7bb886	-0.061455272
189	0xbdd048cb	-0.10170134
190	0x3c957b6e	0.018247332
191	0xbdc4f156	-0.09616344
192	0x3e651b23	0.22373633
193	0x3b76afd5	0.0037641425
194	0xbd1437ea	-0.036186136
195	0xbd6a93ae	-0.057269745
196	0xbcee09d1	-0.029057415
197	0xbd51b94f	-0.051202115
198	0x3d6a461e	0.057195775
199	0xbd61fc31	-0.05517215
200	0x3d829b80	0.063773155
201	0xbdd1000c	-0.10205087
202	0x3da9c062	0.08288647
203	0xbd2464ee	-0.040135317
204	0xbd9e6bc4	-0.077353984
205	0xbd9527c4	-0.07282975
206	0x3cb0df58	0.021590874
207	0x3dd17ac8	0.10228497
208	0x3d92fe76	0.07177441
209	0x3dde5010	0.108551145
210	0xbe24633e	-0.16053483
211	0xbc0e6bba	-0.008692676
212	0x3e26287b	0.1622638
213	0x3d55596b	0.05208723
214	0xbcfdea79	-0.030995594
215	0xbd4b2e40	-0.049604654
216	0x3cac44d5	0.021028915
217	0xbc617a9b	-0.013762142
218	0xbea0d40c	-0.3141178
219	0xbd8f0a75	-0.069844164
220	0x3d64acd4	0.055828884
221	0xbd669b2a	-0.05630032
222	0xbd8f9024	-0.070099145
223	0xbd6ad476	-0.057331525
224	0x3d6a039e	0.057132356
225	0xbe23e55a	-0.1600546
226	0x3e03abda	0.12858525
227	0xbd8d6d63	-0.069056295
228	0xbe192d45	-0.14958675
229	0xbd88ca8c	-0.06679258
230	0xbdcbf397	-0.099585705
231	0xbd48a9b0	-0.04898995
232	0xbd7c39bb	-0.061578494
233	0x3cfe9447	0.031076564
234	0x3e0bd5f0	0.1365583
235	0x3d67d2ae	0.056597404
236	0x3cd0ebe8	0.025503114
237	0xbc976380	-0.018480062
238	0x3d469666	0.048483275
239	0xbcc33687	-0.023829712
240	0xbcd4a4f2	-0.025957558
241	0x3d4c7f84	0.049926296
242	0x3c9ab6bc	0.018885963
243	0x3d3fbfb2	0.046813674
244	0x3bb76228	0.005596418
245	0xbe781bd6	-0.24229369
246	0xbe012366	-0.1261116
247	0x3d96e77a	0.073683694
248	0x3e300c7f	0.17192267
249	0xbde89962	-0.113573804
250	0x3d69e6c6	0.05710485
251	0xbcda3e8c	-0.026641153
252	0xbdbe00e2	-0.09277512
253	0xbe03f5ac	-0.12886685
254	0x3d096f2d	0.03355329
255	0x3d945add	0.07243893

tfm.layers.0.attention.query.layer.bias f4 [72]
0	0x3f223b4a	0.6337172
1	0xbe8495af	-0.2589545
2	0x3dfe8063	0.124268316
3	0x3d2b428c	0.04181151
4	0x3e25970d	0.16170903
5	0xbde97f77	-0.11401265
6	0xbec1d587	-0.3785822
7	0x3df636cb	0.1202217
8	0x3ecccbd1	0.3999925
9	0xbed0b7fd	-0.40765372
10	0x3ea87473	0.32901344
11	0xbef2d4f8	-0.47428107
12	0x3e49b743	0.19698815
13	0xbf16fc70	-0.5897894
14	0x3e77ddd8	0.2420572
15	0x3e746a13	0.23868589
16	0xbe0db8cc	-0.13840026
17	0xbe83d4c6	-0.2574827
18	0x3fac3622	1.345402
19	0x3c037240	0.008022845
20	0x3ef7ead2	0.4842134
21	0xbf2e54a0	-0.6809788
22	0xbe86dc69	-0.26340035
23	0xbe4eab51	-0.2018254
24	0x3d05c64c	0.032659814
25	0xbecfe4ac	-0.4060415
26	0xbec231c7	-0.37928602
27	0xbe5c16ae	-0.21493027
28	0xbe8c8e5f	-0.2745237
29	0x3eac11e2	0.33607394
30	0x3dfd348e	0.1236354
31	0x3e52aef8	0.20574558
32	0xbecc3137	-0.39881298
33	0x3de15253	0.1100203
34	0x3dc741b9	0.097293325
35	0xbd921b6b	-0.07134136
36	0x3e5daf2c	0.21648854
37	0x3d3427f0	0.0439834
38	0xbeed1c2e	-0.46310562
39	0xbdcf3ddd	-0.10119221
40	0x3f2c3da0	0.6728153
41	0xbf886bba	-1.0657876
42	0x3fa49b19	1.2859832
43	0x3f893922	1.072056
44	0xbe4cae0b	-0.19988267
45	0xbf909c39	-1.1297675
46	0xbf8cf9b0	-1.1013699
47	0x3ee4af96	0.4466521
48	0x3f01a7a1	0.50646406
49	0x3e28539b	0.16438143
50	0xbf1ad17f	-0.60475916
51	0xbf00dd61	-0.503378
52	0xbe3051ec	-0.1721875
53	0x3f8a7fd0	1.0820255
54	0x3f42faa8	0.7616372
55	0x3b32a37c	0.0027258089
56	0x3f7744ec	0.9658954
57	0xbefcb662	-0.49357897
58	0x3e03e016	0.12878451
59	0x3f015e23	0.50534266
60	0x3e83e00b	0.2575687
61	0x3f1673e5	0.5877059
62	0x3f9deec8	1.2338495
63	0x3edf692d	0.4363493
64	0xbefd74c1	-0.4950314
65	0xbf09dafe	-0.5384978
66	0xbf4f545b	-0.8098809
67	0x3e1460a5	0.14489992
68	0x3f934f52	1.1508582
69	0xbf35c693	-0.71006125
70	0x3f8b859e	1.0900152
71	0xbf03c171	-0.51467043

tfm.layers.0.attention.key.layer.weight f4 [72, 72]
0	0xbd22e45f	-0.039768573
1	0x3bd875f9	0.0066058603
2	0xba603f0e	-0.0008554318
3	0xbcb070ad	-0.021538103
4	0x3d351f84	0.04421951
5	0x3d021f74	0.031768277
6	0x3e84de62	0.25950915
7	0x3e14db26	0.14536723
8	0xbe071f88	-0.13195622
9	0x3dc1f81e	0.09471153
10	0x3e84c93a	0.25934774
11	0xbd4c68bb	-0.049904566
12	0xbe61c6bf	-0.22048472
13	0x3de49603	0.11161425
14	0x3d2440b9	0.040100787
15	0x3c8077f3	0.015682196
16	0xbd3dc695	-0.04633196
17	0xbd9a3eb4	-0.07531491
18	0x3d9e7692	0.07737459
19	0xbab53ac8	-0.0013826722
20	0x3e480a3c	0.19535154
21	0x3d675015	0.056472857
22	0x3da6d2a6	0.08145647
23	0x3c958c18	0.018255278
24	0x3d522428	0.051304013
25	0x3e47175c	0.19442505
26	0xbe2acc01	-0.16679384
27	0xbd997ed4	-0.07494894
28	0xbd5f960e	-0.054586463
29	0x3ceab172	0.028649066
30	0xbde39547	-0.11112457
31	0xbdb100e5	-0.08642749
32	0xbd9a23bd	-0.07526348
33	0x3d97c542	0.07410671
34	0x3d0d9476	0.03456541
35	0xbbec5072	-0.0072117383
36	0x3d6a24c1	0.057163958
37	0x3b997930	0.004683636
38	0xbd9678c6	-0.073472545
39	0x3cccc39e	0.024995621
40	0xbe55cf30	-0.20879817
41	0x3e282d9b	0.16423647
42	0xbcfdb446	-0.03096975
43	0x3c902527	0.01759584
44	0xbc8881a6	-0.016663384
45	0x3e53f8da	0.20700398
46	0x3db259be	0.08708523
47	0xbcad5141	-0.021156909
48	0xbe26a51b	-0.1627392
49	0x3d20e9f8	0.03928563
50	0xbca9d439	-0.020731078
51	0xbd8705fd	-0.06592939
52	0x3c063129	0.008190432
53	0xbd053688	-0.03252271
54	0xbe24f888	-0.16110432
55	0x3a90da9a	0.0011051476
56	0x3c9d45db	0.019198349
57	0x3e8cd685	0.27507415
58	0xbdad1073	-0.08450403
59	0xbdcaa150	-0.09894049
60	0x3e13b1f0	0.14423347
61	0x3e50e80f	0.20401023
62	0xbdc87e01	-0.09789658
63	0xbd74b8c7	-0.05974653
64	0xbd8bacb0	-0.06820047
65	0x3da118d4	0.07866064
66	0xbed4a589	-0.41532543
67	0x3e4a1b4e	0.19736978
68	0xbd4a6b28	-0.0494186
69	0x3db08455	0.0861899
70	0xbd5c989c	-0.053856477
71	0xbd7e75df	-0.06212413
72	0xbe06fc7f	-0.13182257
73	0xbc2c4f37	-0.010516933
74	0x3c6c8fd4	0.014438588
75	0x3d494cda	0.049145557
76	0x3e0377bb	0.12838642
77	0x3e131a00	0.14365387
78	0xbe24daa4	-0.1609903
79	0x3c307395	0.010769744
80	0xbbb36daa	-0.0054757195
81	0xbe6ec716	-0.23318133
82	0x3de4f187	0.1117888
83	0x3e6ecb28	0.23319685
84	0xbd3e5a98	-0.046473116
85	0xbdd9df74	-0.106383234
86	0x3d3f26aa	0.046667732
87	0xbde210f5	-0.110383905
88	0xbd3e3d5f	-0.046445247
89	0x3d142dea	0.0361766
90	0x3d8a3765	0.06748847
91	0xbd2a45b8	-0.041570395
92	0xbd7650b4	-0.06013556
93	0x3dee442c	0.116340965
94	0xbd902dab	-0.070399605
95	0xbdac5f45	-0.08416609
96	0xbd6e3a56	-0.058161102
97	0xbdfd488b	-0.12367352
98	0x3e1e423b	0.15454952
99	0x3d1f84dd	0.038945068
100	0xbe39cc05	-0.18144234
101	0xbe207616	-0.15670046
102	0xbdfdc41d	-0.12390921
103	0x3c95c568	0.018282607
104	0x3d137856	0.036003433
105	0xbe576d44	-0.21037775
106	0xbe18deb9	-0.14928712
107	0xbd7fff75	-0.062499482
108	0xbd2464b9	-0.04013512
109	0x3d827c77	0.06371396
110	0x3e027ba3	0.12742476
111	0xbca157b5	-0.019695142
112	0x3de40fc0	0.111358166
113	0x3d11c1c0	0.035585165
114	0x3c94827c	0.018128626
115	0x3d7ac5a4	0.06122364
116	0xbcc084a5	-0.02350075
117	0xbe182436	-0.14857563
118	0x3c023c94	0.007949013
119	0xbd0351ff	-0.03206062
120	0x3ca95974	0.020672537
121	0xbcda6310	-0.026658565
122	0xbd71f6a1	-0.059073094
123	0xbdb6a62a	-0.08918412
124	0xbda588cc	-0.080827326
125	0x3d41a6bc	0.04727815
126	0x3bbcaa6b	0.00575762
127	0x3e0f8498	0.14015424
128	0x3daae9a2	0.08345343
129	0xbdc5f009	-0.09664924
130	0x3d0c049d	0.034184087
131	0x3cc88713	0.02447847
132	0x3cfe3457	0.031030817
133	0xbc8fd84a	-0.01755919
134	0xbcfee74d	-0.031116152
135	0x3e4f6349	0.20252718
136	0x3e20a9a6	0.15689716
137	0xbe604898	-0.21902692
138	0x3e3c4e6f	0.18389295
139	0xbe871886	-0.26385897
140	0x3e60a1c2	0.21936706
141	0x3db7f301	0.08981896
142	0xbd343d49	-0.04400376
143	0xbbef4f38	-0.007303145
144	0xbd945153	-0.07242074
145	0x3d9cee18	0.076626
146	0xbe00cfb9	-0.1257924
147	0x3bf396e6	0.00743376
148	0x3d8fc788	0.070204794
149	0x3d02a71a	0.03189764
150	0x3e0489e2	0.12943223
151	0x3d31536c	0.043292448
152	0xbd0829ca	-0.03324298
153	0xbbc1eefb	-0.0059183813
154	0xbd339462	-0.04384268
155	0x3d238071	0.039917413
156	0xbcd412c8	-0.025887862
157	0x3cccd626	0.025004458
158	0x3dcf41de	0.10119985
159	0x3e48fb5e	0.19627139
160	0x3d441862	0.047874816
161	0xbd017783	-0.031608116
162	0x3dd967ab	0.10615476
163	0xbe24f8c0	-0.16110516
164	0x3e38a8ed	0.1803319
165	0x3d9e3712	0.077253476
166	0x3d313940	0.04326749
167	0xbcf703bc	-0.030153148
168	0x3d8ab294	0.06772342
169	0x3c43f071	0.011959181
170	0xbd9fc87a	-0.0780191
171	0x3c18256e	0.009286268
172	0x3cb9ace0	0.022665441
173	0xbcc74269	-0.024323659
174	0x3d55ff6c	0.052245542
175	0xbcd3e7ae	-0.02586731
176	0xbd018d09	-0.031628642
177	0x3e56e4b3	0.2098568
178	0xbce730ed	-0.028221572
179	0x3e41e717	0.1893581
180	0xbd847281	-0.064671524
181	0xbc9bc235	-0.019013504
182	0x3d91168f	0.07084381
183	0xbe12ffa0	-0.14355326
184	0x3da6dcee	0.08147608
185	0x3dea5a4b	0.11443003
186	0xbd45fa9c	-0.048334703
187	0xbd0aa6fe	-0.033850662
188	0xbd365bf5	-0.04452129
189	0x3d3fc682	0.04682017
190	0x3b402d28	0.002932379
191	0x3d4221c3	0.04739548
192	0xbe389b4f	-0.18027996
193	0x3c2a5ea0	0.010398537
194	0xbbc7ae51	-0.006093778
195	0xbdd31e15	-0.10308472
196	0xbcc3b335	-0.023889164
197	0x3cbfd027	0.023414684
198	0xbcaa6e5c	-0.020804577
199	0x3d6b6131	0.057465736
200	0x3d9ce120	0.07660127
201	0x3dc1e0f6	0.09466736
202	0xbdb58f4b	-0.088652216
203	0x3dcad102	0.09903146
204	0x3cfcdde4	0.030867524
205	0x3d4aea15	0.049539644
206	0xbbbcc91e	-0.0057612797
207	0xbdd7b35a	-0.105322555
208	0xbc39e69f	-0.011346488
209	0xbd951a64	-0.07280424
210	0x3bb73556	0.005591075
211	0xbd345063	-0.044021975
212	0x3da46af1	0.0802821
213	0x3c143316	0.009045383
214	0xbc859718	-0.016307399
215	0xbb34b3e1	-0.0027573036
216	0xbbc6ae2c	-0.0060632434
217	0x3d2a4d71	0.04157776
218	0x3cd55e26	0.02604587
219	0xba2155a1	-0.00061544223
220	0x3e05f705	0.13082512
221	0xbd6360ee	-0.05551236
222	0x3d9f426c	0.07776341
223	0x3d1ea381	0.03873015
224	0xbd8c491c	-0.06849882
225	0xbd6d1c27	-0.057888176
226	0x3dcc895f	0.09987139
227	0x3de0ab2c	0.109701484
228	0xbe099b9b	-0.13438265
229	0x3b8dfd2a	0.004333158
230	0x3dae61fb	0.08514782
231	0xbde59acb	-0.11211165
232	0xbd98d78d	-0.07462988
233	0xbe893fc6	-0.26806468
234	0x3cf292bb	0.029610982
235	0xbc18b9c2	-0.009321632
236	0x3ddd3c92	0.108025685
237	0x3d57c822	0.052681096
238	0xbd9fab1a	-0.07796307
239	0xbd994c07	-0.07485204
240	0xbde2ca55	-0.11073748
241	0x3d3d1c09	0.046169315
242	0xba2b5538	-0.0006535831
243	0xbd6ef6c0	-0.058340788
244	0xbca973fc	-0.020685188
245	0x3d18dbed	0.037319113
246	0x3d11e9a6	0.035623215
247	0x3d423fbf	0.047424074
248	0xbd9648db	-0.07338115
249	0xbd7f9ac0	-0.06240344
250	0xbdbdedb5	-0.09273855
251	0x3dd410c2	0.10354759
252	0x3a1ff414	0.0006101739
253	0x3d2c3e67	0.0420517
254	0x3d2cc81c	0.042183027
255	0xbdabad94	-0.08382717

tfm.layers.0.attention.key.layer.bias f4 [72]
0	0xb9bd4a8a	-0.00036104425
1	0xb9fa44aa	-0.00047734875
2	0xba33c644	-0.0006857852
3	0xba53329d	-0.0008056553
4	0x39b264ef	0.00034026007
5	0xb8fd6b92	-0.000120840166
6	0x3abed295	0.0014558608
7	0x394d96ec	0.00019606546
8	0x3976ce6d	0.00023537288
9	0x3a1f096d	0.0006066773
10	0x39dbe233	0.00041939467
11	0xba6bb137	-0.00089909456
12	0x38df2e19	0.00010642055
13	0x3749ca1e	1.2027593e-05
14	0xb809ee20	-3.2885117e-05
15	0x38787316	5.923499e-05
16	0x394acd95	0.00019340806
17	0xb880da58	-6.144185e-05
18	0xb8a0c1ef	-7.6655175e-05
19	0xb8f246cc	-0.00011552646
20	0x388fe4f0	6.861414e-05
21	0x3813b3b0	3.5214878e-05
22	0x389e6df2	7.554506e-05
23	0xb8c1e2cd	-9.245202e-05
24	0xba25bfd0	-0.0006322833
25	0x39b3b03e	0.0003427285
26	0x3a16adbb	0.0005747934
27	0x3924624d	0.00015676879
28	0x3aac3705	0.0013138956
29	0x39419ae2	0.00018463613
30	0xba774dfd	-0.00094339234
31	0xb8adb03f	-8.282111e-05
32	0xba8ef4ef	-0.0010906736
33	0xba51a6ff	-0.00079976016
34	0xba1c404e	-0.000596051
35	0x39bb62eb	0.0003574112
36	0xb8ee719d	-0.000113698865
37	0x37b49b57	2.1530008e-05
38	0xb8b01149	-8.3955536e-05
39	0xb8eb3403	-0.00011215361
40	0x388c968d	6.7037625e-05
41	0x37896a58	1.6381193e-05
42	0x37a6d720	1.9888917e-05
43	0x390d8e4c	0.00013499818
44	0x38d8745f	0.000103213584
45	0xb8c81699	-9.540952e-05
46	0xb90bf1c6	-0.0001334614
47	0xb8c261b3	-9.268839e-05
48	0x390290fc	0.00012451777
49	0x36b9e983	5.540614e-06
50	0x386c3304	5.6314297e-05
51	0xb8ca940f	-9.659689e-05
52	0x39063a9c	0.0001280107
53	0x382ddec1	4.145387e-05
54	0xb7323167	-1.0621129e-05
55	0x39667252	0.00021977097
56	0x394de14f	0.00019634257
57	0xb90dd048	-0.00013524399
58	0xb710db77	-8.634167e-06
59	0xb93cd3c0	-0.0001800796
60	0xb8f0ae4f	-0.00011476559
61	0x3865ecc7	5.481837e-05
62	0x38147eec	3.5404155e-05
63	0xb6ee5227	-7.1025165e-06
64	0xb8836977	-6.266211e-05
65	0xb8459a42	-4.7112124e-05
66	0xb80326fa	-3.1269134e-05
67	0x3749b1f8	1.202197e-05
68	0x38e16199	0.00010747015
69	0x36c46c9f	5.8539003e-06
70	0x38af80bc	8.368629e-05
71	0x380b8c4c	3.3270844e-05

tfm.layers.0.attention.value.layer.weight f4 [72, 72]
0	0x3dba5196	0.090975925
1	0x3e5886b8	0.21145141
2	0xbd755f16	-0.059905134
3	0xbbe885e8	-0.007096041
4	0x3d75b4a9	0.059986744
5	0x3d472b23	0.048625123
6	0x3ca16d5b	0.019705465
7	0x3d4ea1a3	0.050447118
8	0x3ce10cc8	0.027471915
9	0xbdd6f2be	-0.10495518
10	0xbd03dabc	-0.032191023
11	0xbda684f4	-0.081308275
12	0x3c36421f	0.011124163
13	0xbb2b49d1	-0.0026136527
14	0x3e8bdd11	0.27317098
15	0x3e64a74e	0.22329447
16	0x3c49f087	0.012325413
17	0x3e796587	0.24355136
18	0xbda31584	-0.07963088
19	0xbcba99f9	-0.022778498
20	0x3c5edbb2	0.013602184
21	0x3cc0c1b1	0.02352986
22	0xbd38f383	-0.045154106
23	0x3d686b3f	0.056742903
24	0xbd86196f	-0.0654782
25	0x3c277cf1	0.010222659
26	0xbc196548	-0.009362526
27	0xbce5e227	-0.02806194
28	0xbd8e739d	-0.06955645
29	0x3c9a651d	0.018847043
30	0xbe001e47	-0.1251155
31	0xbc9c747b	-0.019098511
32	0xbe2abc61	-0.16673423
33	0x3da0c86e	0.07850729
34	0xbd260812	-0.04053504
35	0x3e4cca11	0.19998957
36	0xbd708b21	-0.058726434
37	0x3b5d4115	0.0033760716
38	0x3ea7d999	0.327832
39	0x3e45b484	0.19307142
40	0xbdc41570	-0.095744014
41	0xbd1a7bf1	-0.037715856
42	0xbe11b57d	-0.14229389
43	0xbd74fbfe	-0.05981063
44	0xbd69f197	-0.057115164
45	0x3e563f7d	0.20922656
46	0xbdd17f5d	-0.10229371
47	0xbdd0776f	-0.1017903
48	0x3d5d4686	0.054022335
49	0xbd46f871	-0.048576776
50	0xbaade9e9	-0.0013268563
51	0xbd11ff22	-0.035643704
52	0x3b0dd0ab	0.0021639268
53	0x3da7e6fc	0.08198354
54	0x3cb9e331	0.022691341
55	0xbd3c9ca2	-0.046047814
56	0xbd1bcbb9	-0.038036082
57	0x3c9a09b8	0.018803462
58	0xbc06ae71	-0.008220301
59	0x3ce28c50	0.027654797
60	0xbdee4e96	-0.11636083
61	0xbdb4ea7b	-0.08833786
62	0x3d1719ca	0.03688983
63	0x3e048d1b	0.12944452
64	0xbd904e0d	-0.07046137
65	0x3b498b3c	0.0030753156
66	0x3e6a2b83	0.22868161
67	0x3d497169	0.049180422
68	0xbaf18dc4	-0.001842909
69	0xbe170637	-0.14748465
70	0xbc29634a	-0.010338614
71	0x3d332067	0.043732073
72	0x3d363d5b	0.044492107
73	0x3da15a45	0.07878546
74	0x3c59d06a	0.013294319
75	0x3c60117d	0.0136760445
76	0xbc82eb34	-0.015981294
77	0x3b6f62c0	0.0036527365
78	0xbd24ea51	-0.040262524
79	0xbd82f8eb	-0.063951336
80	0x3c790e6c	0.015201192
81	0xbc179574	-0.009251941
82	0x3ce8abc7	0.028402222
83	0x3e2e8c89	0.17045797
84	0xbe5597a7	-0.20858632
85	0x3c28dc62	0.01030645
86	0x3d80d25b	0.06290122
87	0xbd63bf6c	-0.055602476
88	0xbd832d25	-0.06405095
89	0x3e06d4d5	0.13167126
90	0xbceea4b3	-0.02913127
91	0xbe858940	-0.26081276
92	0x3ebcfa60	0.3690977
93	0x3c6e0dc1	0.014529646
94	0xbd222f2b	-0.039595764
95	0x3cbab9eb	0.02279373
96	0xbd45db75	-0.048304994
97	0xbd7601ac	-0.06006019
98	0x3d5135fa	0.051076867
99	0xbc8577fd	-0.016292566
100	0x3cec2e77	0.02883075
101	0x3d5f763c	0.054556116
102	0x3e640888	0.2226888
103	0xbd12a0ed	-0.035798002
104	0x3d119c8e	0.035549693
105	0xbdee69c7	-0.11641269
106	0xbc9e3564	-0.019312568
107	0xbe4ef8d2	-0.20212105
108	0x3e0c2d66	0.13689193
109	0xbb0367ba	-0.002005084
110	0x3dd425f7	0.10358804
111	0x3d4d20d6	0.050080143
112	0xbd7e9a18	-0.062158674
113	0x3e39baa7	0.18137608
114	0x3d935409	0.07193763
115	0x3e3dd785	0.18539245
116	0xbcd2ab99	-0.02571659
117	0xbe83ed22	-0.25766855
118	0xbd5e6581	-0.05429602
119	0xbdafffe5	-0.0859373
120	0x3e1e0b01	0.15433885
121	0xbcda62f6	-0.026658516
122	0x3cb82438	0.022478208
123	0xbdf82730	-0.121168494
124	0x3d8aa11c	0.067690104
125	0xbe4264f9	-0.1898383
126	0xbd691911	-0.05690867
127	0xbc79a301	-0.015236617
128	0x3e020935	0.12698825
129	0xbdd6cab0	-0.10487878
130	0xbd0bd585	-0.034139175
131	0xbe48d72a	-0.19613329
132	0xbd972f81	-0.073821075
133	0xbde25e10	-0.11053097
134	0x3c957d85	0.018248329
135	0xbe14b778	-0.14523113
136	0x3e6389cb	0.22220533
137	0xbd9480f2	-0.07251157
138	0xbe245ace	-0.16050264
139	0xbe1b1f05	-0.15148552
140	0xbd3afcfb	-0.045651417
141	0xbd92f8b3	-0.07176342
142	0x3b183a30	0.0023228042
143	0x3e58e1ac	0.21179837
144	0xbb18393c	-0.0023227474
145	0xbdf0c047	-0.11755424
146	0xbd831006	-0.063995406
147	0x3c590a56	0.013247093
148	0xbd940198	-0.072268665
149	0x3b3bf5b8	0.0028680395
150	0xbda1e8f4	-0.079057604
151	0xbd7ea6ed	-0.06217091
152	0x3c570907	0.013124711
153	0xbcd4d1eb	-0.025979003
154	0xbe0670da	-0.13128987
155	0xbcbfcbca	-0.023412604
156	0x3d0e3b1f	0.03472435
157	0xbd282863	-0.04105414
158	0xbe660a24	-0.22464806
159	0x3d741d09	0.059598003
160	0x3e8aa5ae	0.2707953
161	0x3cb13941	0.021633746
162	0x3d9c62e4	0.076360494
163	0x3d305144	0.04304625
164	0x3eac3b68	0.33639073
165	0x3c26b5b7	0.01017516
166	0x3e325767	0.17416154
167	0x3c7a76a7	0.015287078
168	0xbd80f7db	-0.06297275
169	0xbddb6425	-0.107124604
170	0x3c7b2c48	0.015330382
171	0xbe01e6fc	-0.1268577
172	0xbd044722	-0.0322944
173	0xbb5a7c31	-0.0033338184
174	0x3c922201	0.01783848
175	0x3d1b8148	0.03796509
176	0x3d8a1084	0.06741431
177	0xbdc1a2f0	-0.09454906
178	0xbd50a1be	-0.0509355
179	0x3d44229c	0.04788457
180	0xbda2cf6d	-0.079497196
181	0x3d8e25db	0.06940814
182	0x3df6c89f	0.12049984
183	0xbe2411b4	-0.16022378
184	0x3d17cf49	0.037062917
185	0x3e88454a	0.26615363
186	0x3dc63fcc	0.09680137
187	0xbe8edd13	-0.2790304
188	0x3b151b7e	0.0022751982
189	0x3d83b28a	0.06430538
190	0xbc61c532	-0.013779925
191	0x3db7e093	0.08978381
192	0x3e0ff172	0.14056948
193	0x3ce11d2e	0.027479734
194	0xbcf404bf	-0.02978742
195	0xbd86aa5f	-0.065754645
196	0xbd03de4f	-0.032194432
197	0xbdb57d1e	-0.08861755
198	0xbc009326	-0.007847583
199	0x3cd9061a	0.026492167
200	0x3cc7c9b1	0.024388166
201	0xbd2a9899	-0.041649435
202	0x3d10afed	0.035324026
203	0xbe0e9041	-0.13922216
204	0x3e6f2740	0.23354816
205	0xbe166ffb	-0.14691155
206	0x3d4f5049	0.050613675
207	0xbdf144d1	-0.11780704
208	0xbde072db	-0.10959407
209	0xbdaab379	-0.08335013
210	0x3ea9d1f4	0.33167994
211	0xbdaddec3	-0.08489754
212	0x3cae2bf4	0.021261193
213	0xbe4fde10	-0.20299554
214	0x3c9944ab	0.018709501
215	0xbd8f0bd3	-0.06984677
216	0x3dbd92ca	0.092565134
217	0xbe385de3	-0.18004565
218	0xbd86711d	-0.065645434
219	0xbd6bb539	-0.057545874
220	0xbdcdecb0	-0.1005491
221	0xbd955b3b	-0.072927915
222	0x3cb06d04	0.021536358
223	0xbc885ccc	-0.016645811
224	0x3e1c4d18	0.15263784
225	0xbd3cdc8a	-0.04610876
226	0x3e2905ee	0.16506168
227	0xbe142024	-0.14465386
228	0xbc59443f	-0.0132609
229	0xbd9dce97	-0.077054195
230	0xbdf323f9	-0.118720956
231	0xbe2c6adb	-0.16837637
232	0xbdf312b0	-0.11868799
233	0xbdc99e9c	-0.098447055
234	0xbaba7c5b	-0.0014227735
235	0x3dc9dba7	0.098563485
236	0x3d20e1a8	0.039277703
237	0x3da4c010	0.080444455
238	0xbdc4a807	-0.09602361
239	0x3d584654	0.052801445
240	0xbc80d3ab	-0.015725931
241	0x3c0f09b7	0.008730344
242	0x3ce88f13	0.028388536
243	0x3d8b5758	0.06803769
244	0x3b302f85	0.0026883793
245	0xbc8d24df	-0.017229496
246	0xbcda78fa	-0.026669014
247	0x3d8a65cc	0.067576975
248	0x3e2fc8dc	0.17166466
249	0xbe07426d	-0.13208933
250	0x3c835e0f	0.016036062
251	0xbda0bfdd	-0.07849095
252	0x3c9e74b7	0.019342763
253	0xbd584fc3	-0.05281044
254	0xbce701a9	-0.028199034
255	0x3dace437	0.08441966

tfm.layers.0.attention.value.layer.bias f4 [72]
0	0xbd094773	-0.033515405
1	0xbc8d7490	-0.017267495
2	0xbcae43de	-0.021272596
3	0xbd1fa382	-0.038974293
4	0x3b6b98aa	0.003594915
5	0x3d8f8e2c	0.07009539
6	0xbbc912a5	-0.006136256
7	0x3d9479a1	0.072497614
8	0xbc2d7e77	-0.010589234
9	0x3cfb1fc5	0.030654797
10	0x3be14c68	0.0068755634
11	0x3caec985	0.021336326
12	0x3c71838a	0.014740834
13	0xbc9975d9	-0.018732952
14	0xbc70bbd6	-0.014693221
15	0x3c1e6732	0.009668158
16	0xbb22d5b7	-0.0024846622
17	0x3c89820a	0.01678564
18	0x3c4ec879	0.012621039
19	0x3cb25946	0.021771085
20	0xbba12fbf	-0.004919022
21	0x3c9c5967	0.0190856
22	0xbca3f68a	-0.02001502
23	0xbd258435	-0.040409286
24	0x3d1564fe	0.036473267
25	0xbd8ebca0	-0.06969571
26	0xbe83dda5	-0.2575504
27	0xbdc6d488	-0.09708506
28	0xbe66b05e	-0.22528216
29	0xbe730676	-0.23732933
30	0xbd9d0562	-0.07667042
31	0x3cad64db	0.021166256
32	0xbe19058d	-0.14943524
33	0xbc881f0c	-0.016616367
34	0xbd2ff82c	-0.042961285
35	0x3c3b37d1	0.011426882
36	0xbd1297d3	-0.035789322
37	0x3ca86c36	0.020559411
38	0x3c8193b7	0.015817506
39	0xbd800aa2	-0.06252028
40	0xbc6dde9e	-0.014518408
41	0x3d6ef2e8	0.058337122
42	0xbc30394f	-0.010755851
43	0xbce6b86b	-0.02816411
44	0x3d16d526	0.036824368
45	0x3d1ffd5f	0.039059993
46	0x3d1e6fec	0.038680956
47	0xbc41502b	-0.011798899
48	0xbd107e3a	-0.03527663
49	0x3d19680d	0.037452746
50	0xbb9b3782	-0.0047368417
51	0x3daf93b8	0.08573097
52	0x3d124c74	0.035717443
53	0xbce0b282	-0.02742887
54	0xbc26d855	-0.0101834135
55	0xbc7bec7e	-0.015376208
56	0x3caa1c58	0.020765468
57	0xbc17dd07	-0.009269006
58	0x3ca3fee2	0.020018999
59	0x3c59de26	0.013297593
60	0x3a666ea8	0.0008790293
61	0xbb1bb1bf	-0.0023757068
62	0x3d1b5505	0.037922878
63	0xbcc337bb	-0.023830285
64	0x3d0257bc	0.03182195
65	0x3bd428db	0.006474597
66	0x3d4a8833	0.049446296
67	0x3d68601f	0.056732293
68	0xbc086dcc	-0.008326959
69	0x3d1f8930	0.03894919
70	0x3c9e15bc	0.019297473
71	0xbc52bfdf	-0.012863128
